checkpoints/actor15.pt (torch, 21960 bytes, 6 tensors)

weight f4 [64, 4]
000000 14 b7 55 3b bf 7a 80 bc 2b 38 82 bc b0 ad 02 3f
       0.0032610344 -0.01568353 -0.015895924 0.51046276
000010 8c 99 97 bd 7f 07 13 bf c5 c4 46 be a1 4a b3 bc
       -0.074023336 -0.57433313 -0.19410999 -0.021886172
000020 43 28 f7 3e bd 38 21 be 61 4d 2f 3e e8 ec 83 be
       0.48272905 -0.157443 0.17119361 -0.25766683
000030 bc 03 05 be aa 35 af be 70 1a 2d 3e be cb 92 be
       -0.12989706 -0.3422063 0.16904616 -0.28671068
000040 58 2f 26 be 62 ac bd 3c 7a c6 99 3e 6c 93 8a 3e
       -0.16228998 0.023153488 0.30034238 0.270656
000050 78 97 96 bd 44 d2 c2 3e 8c 29 16 3e 4e 72 a3 3e
       -0.07353109 0.38051045 0.14664286 0.31923145
000060 bf 8d 77 3e de f6 b3 be c3 65 fa 3d 6b e3 94 3c
       0.24175166 -0.35149282 0.12226441 0.018174848
000070 5c dd c4 be 4a 7b 46 bc c5 a9 12 3e a4 51 a0 3d
       -0.38450134 -0.012114355 0.14322574 0.07828072
000080 4c 8d c8 be 7e 79 bd be 87 a7 92 3e ad a5 58 3e
       -0.391703 -0.37006754 0.28643438 0.2115695
000090 64 ba f7 be d3 2d 9d be 12 01 99 be b5 56 2b 3e
       -0.48384392 -0.30699024 -0.2988363 0.16732295
0000a0 41 66 1c 3e 44 e4 40 bd 96 b4 9b bd d9 7d 36 bd
       0.15273382 -0.04709269 -0.076028034 -0.04455361
0000b0 8e f2 d5 3d 3e 22 b6 be 3f 58 a7 3e c1 08 0a bd
       0.10446654 -0.35573 0.32684514 -0.033699755
0000c0 67 66 f6 be 5d 93 6e be 9f c1 1f bd eb 37 c4 bd
       -0.48125002 -0.23298402 -0.03900301 -0.09580978
0000d0 3e a5 be bd 77 cd 6c be e9 39 c3 3a 30 42 cf bd
       -0.09308861 -0.23125254 0.0014894578 -0.10120046
0000e0 1a 63 d2 3e f4 8b 23 3e a8 55 f5 bd c0 31 68 bc
       0.41091233 0.15971357 -0.11979228 -0.014172018
0000f0 63 e8 96 be 9b 17 02 bf f6 74 1d 3f f4 40 65 3d
       -0.29474172 -0.5081727 0.61506593 0.055970147
000100 a2 11 6f be 56 96 ea 3e 42 25 04 bf 47 4e 10 be
       -0.2334657 0.45817822 -0.5161935 -0.1409236
000110 8a d1 1a bf 56 44 44 3e 95 36 5a be 0c 01 9a 3e
       -0.6047598 0.19166693 -0.21309884 0.30078924
000120 8c 85 74 3d 4a 8d 62 bd fd d4 9f 3e 72 6e d1 3d
       0.059697673 -0.055310525 0.31217185 0.10226144
000130 a2 d2 f3 be 59 6a a6 3d fb 7e e1 3d d8 8c d7 3e
       -0.47621638 0.08125753 0.11010548 0.42099643
000140 b0 c2 d0 3d 60 a4 5e 3e 00 ea 44 3b 88 af 4a 3e
       0.10193384 0.21742392 0.0030046701 0.19793522
000150 c5 fd 46 3e 2a e6 97 bd 5e 08 ce be 56 cb 6b be
       0.19432743 -0.07416947 -0.4024076 -0.23026785
000160 95 73 82 be b0 3e 22 bf 78 b5 15 3f 7c 97 13 bd
       -0.25478807 -0.63376904 0.58480024 -0.03603314
000170 b1 d4 63 3e b0 8a fe 3d 77 54 0e 3f fb e0 1e be
       0.22249104 0.12428796 0.55597633 -0.1551551
000180 07 39 2a bd 95 1e d4 be 74 11 12 3f 71 ce 3a 3d
       -0.04155829 -0.41429582 0.5705788 0.045607034
000190 00 33 85 be fa d0 0a bf 76 fe 7e be 4f 44 02 3d
       -0.26015472 -0.5422512 -0.24901757 0.031803425
0001a0 cb 4e 17 bf 5c 22 b1 bd 67 65 4e 3e 84 dd 13 3f
       -0.59104604 -0.08649132 0.2015587 0.5775988
0001b0 78 db 8e 3e e5 d0 9e be 34 37 86 be 34 38 d8 3d
       0.27901816 -0.3101875 -0.26213992 0.10557595
0001c0 08 69 1b bf 8c 98 47 bc b9 ea 02 3f c5 c2 bf 3e
       -0.6070714 -0.012182366 0.5113941 0.37453285
0001d0 09 4e a6 be ce 43 11 3c 7c a7 55 bc 1e de 79 be
       -0.3248141 0.008866264 -0.01304042 -0.24401137
0001e0 5f 13 0e bf c6 15 d4 bd 8e 4a 08 3f 8f e1 60 3e
       -0.5549831 -0.103557155 0.5323876 0.21961044
0001f0 06 78 8f 3e 7e f8 84 be e1 fa 14 3f 0b fe 53 be
       0.28021258 -0.25970834 0.5819531 -0.20702378
000200 13 35 de bd c6 46 73 3e 1a 33 14 be 83 59 a6 bd
       -0.10849967 0.23757467 -0.14472619 -0.08122542
000210 a7 9e 0e bf b3 69 f8 bd 59 cf cd bd f8 17 90 3e
       -0.55710834 -0.121295355 -0.10049314 0.28143287
000220 8f cc f9 3d 62 00 e1 bd dd ea 4a 3e 8c 28 f6 bc
       0.121972196 -0.10986401 0.19816156 -0.030048631
000230 90 aa c4 3e aa 36 fd be ec bc 53 be a8 8b ca be
       0.3841138 -0.49455768 -0.20677537 -0.39559674
000240 dc 46 01 3e 20 c5 10 be 0c 1a 44 be 00 da 44 bc
       0.12624687 -0.14137697 -0.19150561 -0.012014866
000250 46 04 cb 3c 59 de 99 3e 0f 8a 58 3e c1 af 13 3f
       0.024782311 0.3005245 0.21146415 0.57690054
000260 66 c6 69 be 30 74 b1 bc 21 96 a6 3d cf 48 ba 3e
       -0.22829589 -0.021661848 0.081341036 0.36383674
000270 9c dc 43 be da 29 d9 be e6 4a ca 3e 0d 46 b6 3e
       -0.19127125 -0.42414743 0.39510268 0.3560032
000280 74 6e 00 3f 47 87 ac be e8 99 71 3e 63 64 df be
       0.5016854 -0.33696958 0.23593867 -0.43631276
000290 12 27 af bc 37 b1 16 bf e2 ae 1c be 14 ef b7 3e
       -0.021380935 -0.5886416 -0.15301087 0.3592459
0002a0 7f bc 08 bf 23 b8 93 bd f5 fd 83 3e c0 a5 fe 3d
       -0.5341262 -0.07212856 0.2577969 0.12433958
0002b0 2f 68 e3 3e 3b 34 cd 3e 4b 65 98 be 2a cb 8b bc
       0.44415423 0.4007891 -0.2976478 -0.01706465
0002c0 62 b8 86 3e 44 c9 b0 3e fd 37 6e be 0e e4 20 3f
       0.26312548 0.34528553 -0.23263545 0.62847984
0002d0 cd fb bf be d4 a9 74 3d 1f 77 ee 3d 5d 53 aa be
       -0.37496796 0.059732273 0.11643814 -0.33266726
0002e0 c0 d8 b0 be e7 54 c1 be 9d ef a4 be 37 0d e8 3e
       -0.34540367 -0.37760088 -0.3221406 0.45322582
0002f0 dd a6 4c 3e 03 cb 2a 3e 8a 88 60 3c 74 92 ed 3e
       0.19985528 0.16679005 0.013704428 0.46400797
000300 93 7a d3 3d ae 7e b3 3d dd f9 cc ba 46 72 cb be
       0.103261136 0.087643966 -0.001563843 -0.3973562
000310 bb e0 35 3e 84 30 4d 3e a3 01 fc 3e 0e 14 59 be
       0.17761509 0.20038038 0.4922 -0.21199057
000320 71 57 c7 3e 5c fa 5b 3a bd 99 01 3f 69 99 f3 3d
       0.389339 0.00083914935 0.5062521 0.11894495
000330 fc 4a b4 3d e6 80 e0 3e be d5 11 3e 20 6a 35 3d
       0.08803365 0.43848342 0.14241692 0.04429066
000340 72 e5 62 be 02 03 b7 be 38 fd 3c bb c8 d1 56 be
       -0.22157839 -0.35744482 -0.0028837454 -0.20978463
000350 48 73 1d be 5a 65 73 be 3a ef 0b be e2 da 6d 3e
       -0.15376008 -0.23769131 -0.13665476 0.23228028
000360 ba 4a c0 3e e0 8a b1 3c 3c 04 78 be f0 0f 35 3d
       0.37557012 0.021672666 -0.24220365 0.044204652
000370 3f 24 3c 3d 63 e4 1e 3e 4b f3 f5 3e dd 71 14 3f
       0.045933004 0.1551681 0.4803718 0.5798624
000380 3a 38 95 3e a1 b6 ff 3e 78 a2 30 3c 30 7c c1 be
       0.2914446 0.49944022 0.010780923 -0.3779006
000390 55 ba 05 bf d8 25 1b bf d4 bc d9 3d bd f4 e8 bd
       -0.52237445 -0.6060462 0.10631719 -0.11374805
0003a0 f4 2b 32 be 6d f1 da be 73 36 60 3c 49 9f f5 3e
       -0.1739958 -0.42762318 0.013684857 0.47973087
0003b0 1a 15 c2 bd 5e b4 88 be 26 69 14 3f a1 e9 50 be
       -0.09476681 -0.2670011 0.57972944 -0.20401622
0003c0 3b 88 60 3e 62 cf 1a be 26 db 88 3d cd 40 8f be
       0.21926968 -0.15118173 0.06682424 -0.27979127
0003d0 e8 07 32 be 5a c9 c0 3d 44 9f ff 3e b4 3f df 3e
       -0.17385828 0.09413405 0.49926198 0.4360329
0003e0 7e ad 77 3e d4 ed 8b be 54 31 8a be 79 71 71 3e
       0.24187276 -0.27329886 -0.2699076 0.23578443
0003f0 76 ef 15 3e 9f 80 e3 be e8 0d df 3e 75 ff ec 3d
       0.14642128 -0.44434068 0.43565297 0.11572162

bias f4 [64]
000000 a5 5c 8b 3e da 61 62 3a dd 7e ab 3e f4 40 9f be
       0.2721912 0.0008635797 0.33495227 -0.31104243
000010 3c da d1 3e 50 2a e3 be 98 09 0d 3f 58 1a 1c 3f
       0.40986812 -0.4436822 0.55092764 0.609777
000020 57 6f a1 be 1b 6e 09 be 9c 4e 08 bd af 82 95 3e
       -0.31530258 -0.13420908 -0.033278093 0.29201266
000030 d7 97 e3 3e 14 36 07 3f dc 48 ec be 5c bb 1c be
       0.44451782 0.5281689 -0.46149337 -0.15305847
000040 fc 0f 98 3c e3 be 28 3f 78 38 82 3e bb c2 00 3d
       0.01856231 0.6591627 0.25433707 0.03143571
000050 0c 8e c9 be d4 58 01 3f ba 90 9a be 8f a9 8d 3e
       -0.39366186 0.50526166 -0.30188543 0.27668425
000060 c4 07 de 3e 48 ac 5d be d0 12 b0 bd b6 a5 0a 3d
       0.433653 -0.21647751 -0.08597338 0.03384944
000070 4e e8 06 3f c4 bb c7 be b6 52 39 be da 27 3a 3f
       0.5269822 -0.3901044 -0.18097958 0.7271706
000080 bf ac 2d be 84 24 6f be 64 9e 5d be a8 70 ea be
       -0.16960429 -0.23353773 -0.21642452 -0.45789075
000090 48 c6 b5 be 76 db 9d be dd 2c e7 3e 96 5d 5b 3e
       -0.3550284 -0.30831498 0.45151415 0.21422419
0000a0 c6 1a b7 bd ff e7 f8 3e e0 b4 09 3f 77 85 b5 be
       -0.089406535 0.486145 0.5379162 -0.35453388
0000b0 cd 9e 86 bd 34 b7 83 be 1b 2c 58 be fd cd 14 3f
       -0.065732576 -0.2572571 -0.21110575 0.58126813
0000c0 cb 32 ba be 91 af 04 3f 72 9d 0b 3f 09 a1 7f be
       -0.36366877 0.51830393 0.5453712 -0.24963774
0000d0 7f 3c 99 be 0e 38 71 be 2c 18 75 be ca 38 bf 3d
       -0.29928967 -0.2355654 -0.23935002 0.093370035
0000e0 e8 16 cb be 87 98 fa 3e 96 41 8b be d7 46 4c 3f
       -0.39665914 0.48944494 -0.27198476 0.79795593
0000f0 01 0f 39 be 2b 53 03 3f 0d 55 c4 3e 77 34 c7 3e
       -0.1807213 0.5129878 0.3834614 0.38907215

weight f4 [64, 64]
000000 37 c4 22 be c3 9c fb bd 15 0e 0d be 4c 7a fa 3d
       -0.15895163 -0.12285759 -0.13774903 0.122303575
000010 f0 ac 8c bc 68 29 4e bd b4 20 bf 3c a5 bd b3 3b
       -0.017172307 -0.050332457 0.023331024 0.005485254
000020 06 d7 a6 bd 93 27 3f bb eb a0 6e bc 41 5b 2d 3b
       -0.08146481 -0.0029167875 -0.014564733 0.0026452097
000030 43 68 75 bd 55 ec 9c 3d 00 84 73 39 eb 3c b4 bd
       -0.059913885 0.07662264 0.0002322346 -0.08800682
000040 22 73 4a 3d 34 98 02 3d 7e 66 41 bd a8 5f 8c 3b
       0.049426205 0.031883433 -0.047216885 0.004283864
000050 40 ac 72 bc 6a c6 80 bd 31 1e 8f 3d 68 1a 91 3d
       -0.014811575 -0.062878445 0.069881804 0.07085115
000060 73 58 a1 3d 3e 23 94 3c b5 f5 a1 bd 97 04 4d bc
       0.078781985 0.018083211 -0.07908193 -0.012513301
000070 ac f6 11 be ad b8 e5 3c 96 a7 1c 3d 18 bb 02 bd
       -0.14254254 0.028042162 0.03824576 -0.031916708
000080 b9 33 72 3d 1b 29 53 3c 47 e6 1e bd ae 96 b8 3d
       0.059131358 0.012888218 -0.03879383 0.09013115
000090 60 a4 fb 3c 0a 7a ce bd e5 c0 a9 bc 59 fd 9b 3d
       0.030718029 -0.10081871 -0.020721862 0.076166816
0000a0 07 09 a9 bd c3 e5 81 3d 8a 05 0c 3d 90 4f eb bd
       -0.08253675 0.06342652 0.03418497 -0.11489785
0000b0 cc b3 19 be cd ef 14 bd 86 ff 06 bd c8 ca 93 3c
       -0.15009993 -0.036361504 -0.03295853 0.01804103
0000c0 64 8c d6 3d 60 fb 24 3d 4d be c6 bd 5f ba c7 3d
       0.10475996 0.040278792 -0.09704266 0.09752344
0000d0 fc 25 8c 3d 82 6e 96 bd 96 24 a0 bd 79 37 51 3d
       0.068431824 -0.073452964 -0.07819478 0.051078293
0000e0 b4 47 c4 bd 22 82 90 3d 17 ce 5d bc 6f e5 3d bb
       -0.09583989 0.07056071 -0.013537905 -0.0028975864
0000f0 90 21 03 3d 72 91 1b 3d 99 a1 aa 3d 77 3b 24 3d
       0.03201443 0.037980504 0.083316036 0.040095773
000100 fe 5f d4 3d c8 53 c2 3d 5f 8e 2d 3e e0 d8 f3 3c
       0.103698716 0.09488636 0.16948842 0.0297665
000110 65 02 61 3e 9a 06 9c 3d 59 c1 42 3e 2d 1c 0c 3e
       0.2197357 0.07618447 0.19019069 0.13682623
000120 47 83 22 3d 92 42 8a 3e 9b 23 55 bd 6d 8f 4a 3e
       0.039675977 0.27003914 -0.05203591 0.19781275
000130 92 ca 15 3e fa f4 e6 3d fc 46 56 bd 44 dd e9 3d
       0.14628056 0.11277194 -0.05231379 0.11419156
000140 36 62 82 3d 9d c4 7d 3e cb 08 8a 3e 38 c4 9d 3d
       0.063663885 0.24782033 0.26959834 0.077034414
000150 b0 77 ec 3d 1a 2a 39 3e a2 ba 8c 3e 74 49 8c bd
       0.11546266 0.18082467 0.2748614 -0.068499476
000160 27 01 60 3e 7b 07 f7 3d bd a2 7e 3e 1e a0 45 3e
       0.2187544 0.12061974 0.24866767 0.19299361
000170 b9 7e b5 3d 5b b7 7b bd ff c5 8e 3e f7 bb 61 3c
       0.08862061 -0.06145416 0.27885434 0.0137777245
000180 e4 cb 81 bd 60 08 02 3e 99 9e 8f bd b4 47 a6 3d
       -0.06337717 0.12698507 -0.07012672 0.08119145
000190 80 47 c9 ba 64 fd 09 3e 9d 37 7d 3e 36 81 39 3e
       -0.0015356392 0.13475567 0.24728246 0.18115696
0001a0 42 de b5 3d b6 21 72 3e ad ac b2 3d 21 63 b9 3d
       0.08880283 0.23645672 0.087243415 0.090521105
0001b0 99 eb 46 3d e0 7c e2 3d f2 14 73 3e a7 30 0f 3e
       0.048564527 0.11058974 0.23738459 0.13983403
0001c0 07 3b c1 3c 18 27 15 3e 02 44 3b 3e 7c f7 ff 3c
       0.023587717 0.14565694 0.18287662 0.03124594
0001d0 88 65 92 3d 52 83 26 3e 8c 9c c7 3d b6 64 ab 3c
       0.07148272 0.16261032 0.09746656 0.020922046
0001e0 e5 bd 4a bd 67 d5 80 3e d9 e1 d8 3d d9 f6 81 3d
       -0.049497504 0.25162813 0.10589952 0.063459106
0001f0 89 07 5b bd d2 7d 3c 3e f5 d3 af 3d 1a 3c a8 3e
       -0.053473983 0.18407372 0.085853495 0.32858354
000200 f0 83 32 3d 00 2e be 39 38 66 70 bd 48 f2 55 3d
       0.043582857 0.00036273897 -0.058691233 0.05223301
000210 e0 7d 1e bc 68 a8 43 3d 70 55 61 3d 3e cc 92 bd
       -0.009673566 0.047768027 0.05501312 -0.07167862
000220 b2 da c0 bd 20 5d ab bc b8 df f0 3c f8 a5 48 3d
       -0.09416713 -0.020918429 0.029403552 0.048986405
000230 32 ed f2 bd 14 52 86 bd 9a 73 f7 bd ac 33 da bd
       -0.11861648 -0.06558624 -0.12082596 -0.10654387
000240 90 67 94 3d 1c db ae 3d 24 92 96 bd 08 5c 4e bd
       0.072463155 0.085378855 -0.07352093 -0.050380737
000250 a8 23 2d bd c8 49 99 3c f6 eb c2 3d 18 20 f2 bd
       -0.042270333 0.01871194 0.09517662 -0.11822528
000260 bc a2 57 bd 38 a3 cb bc 80 68 9a bc c8 73 fc bc
       -0.05264543 -0.024858102 -0.018848658 -0.030816928
000270 3c 4a 72 bd a8 8e 73 3d d0 9b f3 3c 24 ea 33 bd
       -0.059152827 0.05946222 0.029737383 -0.043924466
000280 3c 8b 21 bd a4 c0 7f bd 8c 3f e7 3d b2 8b e0 3d
       -0.039439425 -0.062439576 0.112914175 0.10964145
000290 3c 31 2e 3d 00 8a 0a bc 9a 81 d1 bd 20 93 bc 3c
       0.042527422 -0.008455753 -0.10229798 0.023019373
0002a0 c0 1b 70 3b d6 7f ff 3d 9e 9d ae bd 8c ed 65 bd
       0.0036637634 0.12475555 -0.08526157 -0.056134745
0002b0 bc d2 98 bd 60 da 9f bd 04 25 bb bd c0 3e 8d bd
       -0.074620694 -0.078053236 -0.091379195 -0.06896734
0002c0 70 e6 32 3d f8 04 e3 bc f8 57 2f 3d c4 6b 4b bd
       0.043676794 -0.02771233 0.042808503 -0.04966332
0002d0 88 b7 69 3d ba 95 ab 3d 74 e7 aa bd d0 e5 97 bd
       0.057059795 0.083781675 -0.083449274 -0.0741688
0002e0 b6 54 ca 3d 14 b6 28 bd d0 c2 a6 bd d8 f4 69 bd
       0.098794386 -0.04118927 -0.08142626 -0.057118267
0002f0 48 1e 46 bd f0 18 b1 bd a4 fa 25 3d 4a 51 ad 3d
       -0.048368722 -0.086473346 0.040522233 0.0846277
000300 fe bc 06 be b5 90 fe bc eb 7e d6 3d 86 8b 8a 3d
       -0.13158032 -0.031074861 0.104734264 0.06764893
000310 4c 23 38 bd aa a3 9e bd 64 81 9a 3d 57 d1 1f 3c
       -0.044955537 -0.0774606 0.075442106 0.0097545
000320 24 14 fb bd 22 2e c0 bc 62 69 9c 3d 99 e6 b1 3d
       -0.12259701 -0.023459498 0.07637288 0.08686561
000330 a4 16 cb 3d a9 ca a3 bd f0 fe d8 3d 9b a2 f8 bd
       0.09916428 -0.07997639 0.105955005 -0.121403895
000340 85 22 29 bc fb 7d ea bd f0 78 4a bd a8 ed 8c 3d
       -0.0103231715 -0.1144981 -0.04943174 0.06881267
000350 80 6d c3 ba 14 34 86 3d f1 61 eb bd 09 1c d8 bc
       -0.0014909953 0.06552902 -0.1149329 -0.026380556
000360 36 96 f5 3c 4c a2 c2 bd 6d b9 ef 3c 1a 98 13 3d
       0.029978853 -0.09503612 0.029263223 0.036033727
000370 79 73 f8 bc 57 a8 a4 3d 1c 1f 7d bc 1a d6 cb 3d
       -0.0303285 0.08039921 -0.015449312 0.09952946
000380 e1 80 4e bd 82 d9 bc 3d a1 f4 9d 3d 5c e8 72 bd
       -0.050415877 0.09221174 0.07712675 -0.059303626
000390 64 89 c4 3d a5 cb e4 bd 64 e6 ac bd cf 9e 06 bc
       0.09596518 -0.111716546 -0.08442381 -0.008216574
0003a0 97 56 b2 3c d9 86 bf 3d 0c 4e a2 3d ae 10 4c bd
       0.021769805 0.09351892 0.079250425 -0.049820594
0003b0 3e f8 23 bd 74 5f ef 3d ce f8 00 be 06 08 80 3d
       -0.040031664 0.11688128 -0.12594911 0.0625153
0003c0 c0 1d c9 bd 8c dc 92 bd 78 f4 8a 3c fd 75 b6 bd
       -0.098201275 -0.07170972 0.016962275 -0.08909223
0003d0 3b 6d 1e 3c 58 aa bf bc 08 26 8a 3d 94 76 a8 3d
       0.009669597 -0.023396656 0.06745535 0.08225742
0003e0 7c 72 7b 3d 06 fa e2 bc 62 3d 8e 3d 64 48 87 bd
       0.061388478 -0.027707111 0.069453016 -0.06605604
0003f0 f2 08 d1 3d 9c 1e 1d be 8d c5 ad bc 1b 02 1a 3d
       0.10206784 -0.15343708 -0.021212364 0.037599664

bias f4 [64]
000000 d2 5b aa 3b 1b 48 55 3e f0 30 43 bd b7 06 14 bd
       0.005198934 0.20828287 -0.047654092 -0.036139216
000010 2f 2b 45 bd 7c 20 cd bd 16 f1 aa bd f4 1e 17 3e
       -0.048136886 -0.100159615 -0.08346765 0.14757901
000020 8d 32 f9 3d 16 b1 3b 3e 6a be 70 3e 77 2f 6d 3e
       0.12167845 0.18329272 0.23510137 0.23162638
000030 63 36 95 3d a6 3b 69 3e e6 69 14 3d 24 2b 03 3e
       0.07285764 0.2277666 0.036233805 0.12809426
000040 1d 54 30 3d 6a f9 33 3d e6 fe 5c bc 57 3a 07 be
       0.043048967 0.04393903 -0.013488507 -0.13205849
000050 86 fb db 3c 14 8c b7 3d be 09 44 3e 18 a4 5a 3d
       0.026853334 0.08962265 0.19144341 0.05337915
000060 b5 20 b1 3d 2d 1e 86 3d 20 ec ed 3c 23 9e 90 bd
       0.086488165 0.06548724 0.029043257 -0.07061412
000070 ed db 04 bc ec 48 b9 3d 42 45 19 3e d5 2a 9c bd
       -0.008109075 0.09047112 0.14967826 -0.07625357
000080 90 3f a9 bd 32 2d ae 3c 9d f8 ee bd 4a 89 07 3e
       -0.08264077 0.021261785 -0.11668513 0.13235965
000090 a1 fc 87 bd 8b 58 84 3d 48 ec c9 bc 15 cd 84 bd
       -0.06639982 0.06462201 -0.0246488 -0.06484429
0000a0 c7 7e 2c 3e e4 5c 14 bd f1 6f 99 3e 60 90 09 bc
       0.16845237 -0.0362214 0.29968217 -0.008396238
0000b0 c3 a6 c1 3d c4 91 b3 3d 0a 60 92 3d 29 f1 41 3d
       0.094556354 0.08768037 0.07147224 0.04734913
0000c0 dd 1c c8 bd 1b 75 eb 3d e2 6e b5 bd 5f 58 84 bd
       -0.0977113 0.114969455 -0.0885904 -0.06462168
0000d0 4c 07 35 bd 5d e2 45 3e b3 c5 4f 3e 60 04 fb 3c
       -0.044196412 0.19324632 0.2029026 0.030641735
0000e0 33 ae e9 3d 14 3f 90 3c 7c ef 97 3d 1b 00 3a 3d
       0.11410179 0.017608203 0.07418725 0.045410257
0000f0 6f 09 3a 3e 1e 81 09 3e 66 df 43 3e 84 15 09 bd
       0.18167661 0.1342816 0.19128188 -0.033467785

weight f4 [2, 64]
000000 ea 05 8f bd a8 d9 02 bd 08 28 24 bd 16 82 7e bc
       -0.0698355 -0.031945854 -0.04007724 -0.015533945
000010 e0 0f b8 bb 38 ca ef 3d fc c5 e4 3d 75 16 0d bd
       -0.005617127 0.11708492 0.11170575 -0.034445245
000020 53 4b 23 be 94 f7 f8 3b e3 ae 0e bd 1d c0 9b be
       -0.15946703 0.007597873 -0.034834754 -0.30420008
000030 18 09 8a 3d 6f d1 a6 bd 64 eb 8e be 58 f1 51 be
       0.06740016 -0.08145415 -0.27913964 -0.20502222
000040 ee 4b bf 3d 7d f0 e2 bc 16 b8 87 bd 04 c5 d4 3d
       0.09340654 -0.027702564 -0.066269085 0.1038914
000050 bc 2a bc bd 52 fa 6f be 22 ab 9a bd 70 a9 f0 bc
       -0.091878384 -0.23435333 -0.07552172 -0.02937767
000060 8f 76 63 3c 26 49 46 be d9 1e 51 be fd 3d 9f 3d
       0.013883247 -0.19363841 -0.20421924 0.07775495
000070 83 72 41 bd 0f 1c 15 be 59 fe d3 bd 32 29 63 3d
       -0.047228348 -0.14561485 -0.10351247 0.05545921
000080 00 75 6d bd 28 b9 eb 3d 55 d4 d8 bd 65 de 12 be
       -0.057972908 0.11509925 -0.10587374 -0.1434265
000090 ce 11 ab bb 35 27 bd 3d 74 9e 3b bd 0f 89 9e 3d
       -0.0052206283 0.09235994 -0.04580541 0.077409856
0000a0 87 a7 04 be 98 12 ef bc 0d 96 c3 be 8e 86 9c bd
       -0.12954532 -0.02918367 -0.38200417 -0.07642852
0000b0 56 df 10 be af 6c f8 3d 27 3b 1d 3d df 28 5d 3d
       -0.14147696 0.12130105 0.03838649 0.053994056
0000c0 c3 43 12 bc f3 82 9b bd 95 c2 95 bd f4 c1 f3 3d
       -0.008927288 -0.07593336 -0.07312504 0.11902228
0000d0 37 70 ef 3d 7e 81 c0 3c 0d 3e 95 be f7 96 87 3d
       0.11691325 0.023499247 -0.29148903 0.06620591
0000e0 0b 68 d1 3d 12 e9 50 be 4d 88 9b 3c b9 3c ed 3d
       0.10224923 -0.2040141 0.018985892 0.115838476
0000f0 93 7c 62 bd ab cb 91 bd c0 a2 83 bd d4 b3 92 bd
       -0.055294584 -0.07118925 -0.064275265 -0.07163206
000100 c0 ed 38 3d c7 15 27 be 24 02 3a bd 93 4b bf 3d
       0.04514861 -0.16316901 -0.045412198 0.093405865
000110 c9 89 93 3d 4a 9a a1 bd 7e 74 ea bd 84 64 5f be
       0.07204015 -0.078907564 -0.11448 -0.21815687
000120 94 28 9a be 46 c8 88 be c8 82 89 be 4c b3 bc be
       -0.30109084 -0.26715297 -0.2685759 -0.36855543
000130 35 38 4b ba 06 92 63 be 5e 1c 3c be 11 de c6 bd
       -0.0007752211 -0.22223672 -0.18370196 -0.097103246
000140 22 00 8b bd 60 46 39 bd 0e 43 04 3e 53 94 5f 3d
       -0.06787135 -0.04523313 0.12916204 0.054584812
000150 7a 44 90 bd 78 ad 82 be 68 b0 35 be 62 f4 b4 bd
       -0.07044311 -0.2552297 -0.17743075 -0.08835675
000160 67 04 ce bd 01 f5 3f be 00 f7 68 be 69 8c 97 3d
       -0.100594334 -0.18745805 -0.22750473 0.07399828
000170 8b 0c 49 bd 0e f6 fd bd 0f 12 64 be da 26 bd 3d
       -0.049084228 -0.12400447 -0.22272514 0.09235926
000180 b2 fb 8f 3d e0 54 18 3d 9a 33 fe 3d 0b 92 7b be
       0.07030429 0.037190318 0.12412186 -0.2456743
000190 5c 04 4b 3c e6 69 ec ba 78 f7 21 bd 74 0b bc 3c
       0.012391176 -0.0018036931 -0.039542645 0.02295468
0001a0 6b f7 0a be be 75 c5 3d 25 49 b1 be 10 f1 78 bc
       -0.13570945 0.09641598 -0.34626117 -0.0151941925
0001b0 58 f0 81 be b8 4d cc 3c 03 8d 47 3d 99 c8 ad bc
       -0.2537868 0.024939403 0.048718464 -0.021213816
0001c0 68 b7 9b 3c a1 f3 46 be f8 3d 8e bd ee 49 2e 3d
       0.019008353 -0.19428875 -0.06945413 0.042550974
0001d0 fe 0f f3 3d 3d c0 6b be 40 06 4e be 15 06 14 bc
       0.11868285 -0.23022552 -0.20119572 -0.009034653
0001e0 b8 b4 8a bd 8c 83 47 be ff 60 a3 39 cd 82 8d 3d
       -0.067727506 -0.19483775 0.0003116205 0.06909714
0001f0 b6 0a 36 be 52 85 57 be 5b 2c 58 be 83 12 de 3d
       -0.17777523 -0.21046951 -0.2111067 0.108433746

bias f4 [2]
000000 a0 91 bb bc b1 ab 64 be
       -0.022896588 -0.2233112
