checkpoints/actor12.pt (torch, 21960 bytes, 6 tensors)

weight f4 [64, 4]
00000000: 5ad6 803b ba6e f2bb e9d6 bebc c690 003f
00000010: ab8e 96bd 7548 11bf 6df9 4cbe cfc4 eabc
00000020: db7f ea3e 5320 98bd 4e81 f53d b802 adbe
00000030: bc03 05be aa35 afbe 701a 2d3e becb 92be
00000040: 5f84 25be 7f34 003d d706 963e 4b6d 863e
00000050: 7897 96bd 44d2 c23e 8c29 163e 4e72 a33e
00000060: 096e 833e a209 82be 4db2 533c c5d0 a3bd
00000070: e05f c4be 296f 3fba 105c 083e 9af4 883d
00000080: da4e c7be 25da babe 9651 903e c24f 533e
00000090: f846 f6be e8b8 99be 26ed 9bbe da58 243e
000000a0: 4166 1c3e 44e4 40bd 96b4 9bbd d97d 36bd
000000b0: 317a d73d 907c b1be 2339 a33e 862a 2fbd
000000c0: 76ef f5be 5947 63be 90d3 47bd 13cf dabd
000000d0: 7309 bcbd a157 5dbe f5ab 43bc 5136 eebd
000000e0: 1a63 d23e f48b 233e a855 f5bd c031 68bc
000000f0: c958 95be 904a 00bf abe7 1b3f ff3c 483d
00000100: bca5 6ebe f38c ea3e 510d 04bf e845 10be
00000110: f8a4 1abf d9b5 4c3e dfbf 61be 6ccc 953e
00000120: 77c4 773d d332 3bbd fe76 9b3e 9cc7 bd3d
00000130: 2276 f3be a7b7 b63d 0df4 d23d e97d d33e
00000140: b0c2 d03d 60a4 5e3e 00ea 443b 88af 4a3e
00000150: 491b 2e3e 71b7 333d 4b22 fcbe 394d b2be
00000160: 82e9 80be a599 20bf 8041 143f b57f 2ebd
00000170: 54ac 403e c5ca 4b3e 885c fc3e 85f7 6bbe
00000180: 3a8b 06bd e39c abbe d2e6 f93e 320c 09bd
00000190: d4a7 83be ab2b 09bf cd57 82be 8c6f cf3c
000001a0: c830 17bf 95ab a3bd 666b 483e 3a31 123f
000001b0: 0129 8f3e ce59 9abe 8e16 8abe 4753 c63d
000001c0: db39 1bbf c5ba 62bb bbee 003f 854e bb3e
000001d0: 094e a6be ce43 113c 7ca7 55bc 1ede 79be
000001e0: f363 0dbf 0d3c c9bd a60f 073f 3867 5b3e
000001f0: 2075 973e 55a5 0dbe 7e80 f03e 8395 a8be
00000200: 1335 debd c646 733e 1a33 14be 8359 a6bd
00000210: d401 0ebf 7725 eebd c0e9 d6bd 1e7b 8d3e
00000220: 8fcc f93d 6200 e1bd ddea 4a3e 8c28 f6bc
00000230: 90aa c43e aa36 fdbe ecbc 53be a88b cabe
00000240: dc46 013e 20c5 10be 0c1a 44be 00da 44bc
00000250: 3fee e83c 04d9 9d3e 6f69 513e 03a6 113f
00000260: 5bfe 60be 1c15 653d 20a7 143a 1a98 923e
00000270: 164b 43be 8d9e d5be 2520 c73e efbf b23e
00000280: 746e 003f 4787 acbe e899 713e 6364 dfbe
00000290: 0b03 abbc a611 15bf a189 22be beb6 b43e
000002a0: b493 08bf 0503 84bd 0e7a 803e aa02 ef3d
000002b0: 2f68 e33e 3b34 cd3e 4b65 98be 2acb 8bbc
000002c0: 380a 873e 737e b53e 208c 76be e989 1e3f
000002d0: cdfb bfbe d4a9 743d 1f77 ee3d 5d53 aabe
000002e0: 3db1 afbe 5ac0 bebe ff28 a7be 3d77 e53e
000002f0: 4d5e 4d3e 538e 333e 6bd0 c53b 0b36 e93e
00000300: 937a d33d ae7e b33d ddf9 ccba 4672 cbbe
00000310: e3f4 1a3e 5cf6 923e fb82 da3e 5fc4 98be
00000320: 211b cf3e 2d9d ed3d 2b1b c53e 1959 163b
00000330: fc4a b43d e680 e03e bed5 113e 206a 353d
00000340: 72e5 62be 0203 b7be 38fd 3cbb c8d1 56be
00000350: bdbe 1abe 57a1 6dbe 3c04 11be f1f9 673e
00000360: ba4a c03e e08a b13c 3c04 78be f00f 353d
00000370: c1dd 3e3d cc82 273e d524 f23e a14b 123f
00000380: 3a38 953e a1b6 ff3e 78a2 303c 307c c1be
00000390: 3d6a 03bf f807 04bf 1af9 6a3c a983 51be
000003a0: c1ba 2fbe b41b d8be 140b 123c ebc6 f23e
000003b0: 12bc a1bd a4d4 1cbe 8abf ea3e 717d a3be
000003c0: 3b88 603e 62cf 1abe 26db 883d cd40 8fbe
000003d0: f656 31be 85a1 d13d f3df fb3e 3c0d db3e
000003e0: 4ef9 853e a23c 1ebe d4c4 cabe 7a0e ed3d
000003f0: d15e 1d3e 6909 c0be b8a2 ba3e b22c 3f3d
0.0039318027 -0.0073984535 -0.023295837 0.50220907 -0.073514305 -0.56751186 -0.20017023 -0.028658299
0.4580067 -0.0742804 0.119875535 -0.33791137 -0.12989706 -0.3422063 0.16904616 -0.28671068
-0.16163777 0.031300064 0.29302093 0.2625526 -0.07353109 0.38051045 0.14664286 0.31923145
0.25669888 -0.25397974 0.012920928 -0.07998804 -0.38354397 -0.0007302636 0.13316369 0.06687279
-0.38927346 -0.36494556 0.28187245 0.20635894 -0.4810102 -0.30023885 -0.30454367 0.16049519
0.15273382 -0.04709269 -0.076028034 -0.04455361 0.10521353 -0.34665346 0.3187953 -0.042765163
-0.48034257 -0.22195186 -0.048785746 -0.106840275 -0.0918149 -0.21615459 -0.011942853 -0.11631454
0.41091233 0.15971357 -0.11979228 -0.014172018 -0.291693 -0.50113773 0.6090037 0.048886295
-0.2330541 0.4581066 -0.5158282 -0.14089167 -0.6040797 0.19991244 -0.2204585 0.29257524
0.060490098 -0.045702767 0.3036422 0.09266588 -0.47551066 0.08921748 0.10300455 0.41307
0.10193384 0.21742392 0.0030046701 0.19793522 0.17002596 0.043876115 -0.49244913 -0.3482454
-0.25178152 -0.6273444 0.57912445 -0.04260226 0.18815738 0.19901569 0.49289346 -0.2304364
-0.03284762 -0.33518133 0.48808914 -0.033458896 -0.2571398 -0.5358226 -0.25457612 0.025321744
-0.5905881 -0.07991711 0.19572219 0.57106364 0.2796097 -0.3014664 -0.26970333 0.09683853
-0.60635155 -0.0034596187 0.50364274 0.36583343 -0.3248141 0.008866264 -0.01304042 -0.24401137
-0.55230635 -0.09825907 0.5275825 0.21426094 0.29581547 -0.138326 0.46973032 -0.32926568
-0.10849967 0.23757467 -0.14472619 -0.08122542 -0.5547154 -0.116282396 -0.10493803 0.27632993
0.121972196 -0.10986401 0.19816156 -0.030048631 0.3841138 -0.49455768 -0.20677537 -0.39559674
0.12624687 -0.14137697 -0.19150561 -0.012014866 0.028433917 0.30829632 0.20450376 0.5689394
-0.21972029 0.055928335 0.00056706555 0.2863167 -0.19071612 -0.41722527 0.38891712 0.3491206
0.5016854 -0.33696958 0.23593867 -0.43631276 -0.020875474 -0.58230054 -0.15872814 0.3529567
-0.5335038 -0.064458884 0.2509312 0.1167043 0.44415423 0.4007891 -0.2976478 -0.01706465
0.26374984 0.35448036 -0.24076891 0.61929184 -0.37496796 0.059732273 0.11643814 -0.33266726
-0.3431491 -0.37256128 -0.32648465 0.44817534 0.20055504 0.17534761 0.0060368082 0.45549044
0.103261136 0.087643966 -0.001563843 -0.3973562 0.1513248 0.28703582 0.42678055 -0.2983732
0.40450385 0.116022445 0.3849729 0.002294129 0.08803365 0.43848342 0.14241692 0.04429066
-0.22157839 -0.35744482 -0.0028837454 -0.20978463 -0.15111823 -0.23206078 -0.14161772 0.22653939
0.37557012 0.021672666 -0.24220365 0.044204652 0.0465982 0.16358489 0.47293726 0.5714665
0.2914446 0.49944022 0.010780923 -0.3779006 -0.5133398 -0.5157466 0.014341617 -0.2046038
-0.17161085 -0.42208636 0.008913774 0.47417387 -0.078972 -0.15315491 0.45849258 -0.31931642
0.21926968 -0.15118173 0.06682424 -0.27979127 -0.17318329 0.102358855 0.49194297 0.42783535
0.26166767 -0.15452817 -0.39603293 0.11575027 0.15368201 -0.3750718 0.3645227 0.046673484

bias f4 [64]
00000000: 9bd9 7f3e ac94 8ebc 91d0 7e3e f440 9fbe
00000010: 0fee c63e 502a e3be 0866 ec3e 9218 143f
00000020: c5c7 a5be 7e2d 18be 9c4e 08bd cdcb 883e
00000030: 1c48 d43e 9e5e fa3e dc48 ecbe e58e 2bbe
00000040: 6338 4d3c b011 233f 42c4 693e 4261 183c
00000050: 0c8e c9be e05c d23e 0768 a0be 56ca 443e
00000060: 17fd b13e 30b3 6abe 8d16 d4bd e6cb f63b
00000070: b5e5 003f c4bb c7be c761 43be 9f7f 213f
00000080: bfac 2dbe f1cc 77be 649e 5dbe a870 eabe
00000090: 48c6 b5be 49dd a4be 7d48 bb3e 0b2e 483e
000000a0: c61a b7bd c384 f03e 5077 043f 7785 b5be
000000b0: 182c babd 34b7 83be 7482 62be ad0e 0f3f
000000c0: cb32 babe 7481 df3e ea05 e73e 09a1 7fbe
000000d0: 7f3c 99be 0d35 7bbe 2c18 75be 2299 8e3d
000000e0: e816 cbbe 37e6 ca3e 99bb 90be 915b 343f
000000f0: 010f 39be 215b fb3e 13c4 8e3e 2bb7 9d3e
0.24985354 -0.017404877 0.2488425 -0.31104243 0.388535 -0.4436822 0.46171594 0.5784999
-0.32378975 -0.14861104 -0.033278093 0.26717988 0.41461265 0.48900312 -0.46149337 -0.16753729
0.012525651 0.63698864 0.22828773 0.009300532 -0.39366186 0.41086483 -0.31329367 0.1921781
0.34763405 -0.22919917 -0.10355864 0.007531631 0.50350505 -0.3901044 -0.19080268 0.6308536
-0.16960429 -0.24199273 -0.21642452 -0.45789075 -0.3550284 -0.32200077 0.36578742 0.19548814
-0.089406535 0.4697629 0.51744556 -0.35453388 -0.090904415 -0.2572571 -0.22120076 0.5588177
-0.36366877 0.43653452 0.451217 -0.24963774 -0.29928967 -0.24531956 -0.23935002 0.069628015
-0.39665914 0.39628765 -0.28268126 0.7045222 -0.1807213 0.49092963 0.27883968 0.3080381

weight f4 [64, 64]
00000000: 24c8 22be fed5 fbbd 6e17 0dbe 4c7a fa3d
00000010: 63a0 8cbc 6829 4ebd 129f be3c 8b00 b53b
00000020: 06d7 a6bd 4343 39bb eba0 6ebc e02a 2b3b
00000030: c13a 75bd 8afe 9c3d 0084 7339 9141 b4bd
00000040: 7d86 4a3d a9c0 023d b282 41bd 3682 8a3b
00000050: 40ac 72bc cbc6 80bd 311e 8f3d 120c 913d
00000060: ced7 a03d 9c26 943c a8fe a1bd 555d 67bc
00000070: bdf5 11be adb8 e53c 0fa8 1c3d 9bc5 02bd
00000080: b933 723d f129 533c 47e6 1ebd ae96 b83d
00000090: 60a4 fb3c 0a7a cebd 6431 abbc 1bf1 9b3d
000000a0: 0709 a9bd c8e1 813d 981f 0c3d 904f ebbd
000000b0: 2abd 19be cdef 14bd 98fc 06bd 48e3 933c
000000c0: 648c d63d 2107 253d f2d7 c6bd 5fba c73d
000000d0: fc25 8c3d 826d 96bd 9624 a0bd 640b 513d
000000e0: b447 c4bd e146 903d b8bb 5dbc 2de5 3dbb
000000f0: 9021 033d 5394 1b3d a14c aa3d b59c 223d
00000100: 36ee c63d 151d b73d 6477 163e e0d8 f33c
00000110: 03a9 573e 9a06 9c3d 776c ef3d bbf6 f83d
00000120: 5e2d 173d 861c 883e 9b23 55bd 3952 3f3e
00000130: 50d0 013e 56f3 b43d fc46 56bd 4636 e23d
00000140: 16d9 813d 4b3f 723e 2dcc 823e a0de 923d
00000150: b077 ec3d 8da6 213e 5337 8b3e 8070 a6bd
00000160: 6acf 093e 5fe7 ef3d 519f 7a3e 9986 3d3e
00000170: 7180 a53d 5bb7 7bbd 9e0f 8d3e 0df9 02bd
00000180: e4cb 81bd a3a3 fd3d 999e 8fbd b447 a63d
00000190: 8047 c9ba 7a67 063e 738b 2d3e 70c4 333e
000001a0: 42de b53d db9e 6b3e 7c2b 9d3d 2163 b93d
000001b0: 0a3b 323d e07c e23d 229c 6f3e a0ee 053e
000001c0: 073b c13c eb39 fb3d bdea f63d 7cf7 ff3c
000001d0: 8865 923d 4312 233e 8c9c c73d 10b7 793c
000001e0: e5bd 4abd 68e3 2e3e 7137 d23d 9fe3 543c
000001f0: 8907 5bbd d12e 343e 78f9 e8b9 c934 823e
00000200: f083 323d 002e be39 3866 70bd 48f2 553d
00000210: e07d 1ebc 68a8 433d 7055 613d 3ecc 92bd
00000220: b2da c0bd 205d abbc b8df f03c f8a5 483d
00000230: 32ed f2bd 1452 86bd 9a73 f7bd ac33 dabd
00000240: 9067 943d 1cdb ae3d 2492 96bd 085c 4ebd
00000250: a823 2dbd c849 993c f6eb c23d 1820 f2bd
00000260: bca2 57bd 38a3 cbbc 8068 9abc c873 fcbc
00000270: 3c4a 72bd a88e 733d d09b f33c 24ea 33bd
00000280: 3c8b 21bd a4c0 7fbd 8c3f e73d b28b e03d
00000290: 3c31 2e3d 008a 0abc 9a81 d1bd 2093 bc3c
000002a0: c01b 703b d67f ff3d 9e9d aebd 8ced 65bd
000002b0: bcd2 98bd 60da 9fbd 0425 bbbd c03e 8dbd
000002c0: 70e6 323d f804 e3bc f857 2f3d c46b 4bbd
000002d0: 88b7 693d ba95 ab3d 74e7 aabd d0e5 97bd
000002e0: b654 ca3d 14b6 28bd d0c2 a6bd d8f4 69bd
000002f0: 481e 46bd f018 b1bd a4fa 253d 4a51 ad3d
00000300: febc 06be b590 febc eb7e d63d 868b 8a3d
00000310: 4c23 38bd aaa3 9ebd 6481 9a3d 57d1 1f3c
00000320: 2414 fbbd 222e c0bc 6269 9c3d 99e6 b13d
00000330: a416 cb3d a9ca a3bd f0fe d83d 9ba2 f8bd
00000340: 8522 29bc fb7d eabd f078 4abd a8ed 8c3d
00000350: 806d c3ba 1434 863d f161 ebbd 091c d8bc
00000360: 3696 f53c 4ca2 c2bd 6db9 ef3c 1a98 133d
00000370: 7973 f8bc 57a8 a43d 1c1f 7dbc 1ad6 cb3d
00000380: e180 4ebd 82d9 bc3d a1f4 9d3d 5ce8 72bd
00000390: 6489 c43d a5cb e4bd 64e6 acbd cf9e 06bc
000003a0: 9756 b23c d986 bf3d 0c4e a23d ae10 4cbd
000003b0: 3ef8 23bd 745f ef3d cef8 00be 0608 803d
000003c0: c01d c9bd 8cdc 92bd 78f4 8a3c fd75 b6bd
000003d0: 3b6d 1e3c 58aa bfbc 0826 8a3d 9476 a83d
000003e0: 7c72 7b3d 06fa e2bc 623d 8e3d 6448 87bd
000003f0: f208 d13d 9c1e 1dbe 8dc5 adbc 1b02 1a3d
-0.1589666 -0.12296675 -0.13778469 0.122303575 -0.017166322 -0.050332457 0.02326921 0.0055237464
-0.08146481 -0.002826885 -0.014564733 0.0026118085 -0.059870485 0.07665737 0.0002322346 -0.08801568
0.049444664 0.031922016 -0.04724378 0.004226948 -0.014811575 -0.06287917 0.069881804 0.0708238
0.078536615 0.018084817 -0.079099 -0.014121373 -0.14253898 0.028042162 0.03824621 -0.031926733
0.059131358 0.012888418 -0.03879383 0.09013115 0.030718029 -0.10081871 -0.020897575 0.076143466
-0.08253675 0.063418925 0.034209818 -0.11489785 -0.15013567 -0.036361504 -0.032955736 0.018052712
0.10475996 0.04029 -0.09709157 0.09752344 0.068431824 -0.07345106 -0.07819478 0.051036254
-0.09583989 0.07044769 -0.013533525 -0.002897571 0.03201443 0.03798325 0.08315397 0.03970023
0.09713404 0.08941094 0.14693981 0.0297665 0.21060567 0.07618447 0.1169061 0.12156435
0.0369085 0.26584262 -0.05203591 0.18683709 0.12677121 0.08835475 -0.05231379 0.11045508
0.06340234 0.23656957 0.255464 0.071713686 0.11546266 0.1578619 0.27190647 -0.081269264
0.13458028 0.117140524 0.24474837 0.18508376 0.08081139 -0.06145416 0.27550977 -0.031975795
-0.06337717 0.12384727 -0.07012672 0.08119145 -0.0015356392 0.1312541 0.16947727 0.17555404
0.08880283 0.23009817 0.076743096 0.090521105 0.043513335 0.11058974 0.23399404 0.1307931
0.023587717 0.12266906 0.120564915 0.03124594 0.07148272 0.15924935 0.09746656 0.015241399
-0.049497504 0.17078936 0.10264481 0.012993722 -0.053473983 0.17595984 -0.00044436357 0.25430897
0.043582857 0.00036273897 -0.058691233 0.05223301 -0.009673566 0.047768027 0.05501312 -0.07167862
-0.09416713 -0.020918429 0.029403552 0.048986405 -0.11861648 -0.06558624 -0.12082596 -0.10654387
0.072463155 0.085378855 -0.07352093 -0.050380737 -0.042270333 0.01871194 0.09517662 -0.11822528
-0.05264543 -0.024858102 -0.018848658 -0.030816928 -0.059152827 0.05946222 0.029737383 -0.043924466
-0.039439425 -0.062439576 0.112914175 0.10964145 0.042527422 -0.008455753 -0.10229798 0.023019373
0.0036637634 0.12475555 -0.08526157 -0.056134745 -0.074620694 -0.078053236 -0.091379195 -0.06896734
0.043676794 -0.02771233 0.042808503 -0.04966332 0.057059795 0.083781675 -0.083449274 -0.0741688
0.098794386 -0.04118927 -0.08142626 -0.057118267 -0.048368722 -0.086473346 0.040522233 0.0846277
-0.13158032 -0.031074861 0.104734264 0.06764893 -0.044955537 -0.0774606 0.075442106 0.0097545
-0.12259701 -0.023459498 0.07637288 0.08686561 0.09916428 -0.07997639 0.105955005 -0.121403895
-0.0103231715 -0.1144981 -0.04943174 0.06881267 -0.0014909953 0.06552902 -0.1149329 -0.026380556
0.029978853 -0.09503612 0.029263223 0.036033727 -0.0303285 0.08039921 -0.015449312 0.09952946
-0.050415877 0.09221174 0.07712675 -0.059303626 0.09596518 -0.111716546 -0.08442381 -0.008216574
0.021769805 0.09351892 0.079250425 -0.049820594 -0.040031664 0.11688128 -0.12594911 0.0625153
-0.098201275 -0.07170972 0.016962275 -0.08909223 0.009669597 -0.023396656 0.06745535 0.08225742
0.061388478 -0.027707111 0.069453016 -0.06605604 0.10206784 -0.15343708 -0.021212364 0.037599664

bias f4 [64]
00000000: 1887 ab3b 905a 493e f030 43bd b706 14bd
00000010: 2f2b 45bd 7c20 cdbd 16f1 aabd 682f 0e3e
00000020: c31b d23c 2468 333e 4c1c 643e 49c9 2a3e
00000030: a5ff 953d 5933 613e cab2 e8bb 8fa6 f33d
00000040: 1d54 303d 6af9 333d e6fe 5cbc 573a 07be
00000050: 86fb db3c a19b a13d e1d6 373e 18a4 5a3d
00000060: b916 883d efab 713d 8277 b73c 239e 90bd
00000070: eddb 04bc d4b9 a43d 3696 113e d52a 9cbd
00000080: 903f a9bd 065a b13c 9df8 eebd 0ceb 003e
00000090: a1fc 87bd 8b58 843d 48ec c9bc 35d7 83bd
000000a0: fd3d 223e e45c 14bd 4ddf 593e 6090 09bc
000000b0: ef25 b43d f6c1 b43d 0a60 923d 29f1 413d
000000c0: dd1c c8bd 59e3 d93d e26e b5bd 5f58 84bd
000000d0: 4c07 35bd cb6d 3d3e e661 153e 6004 fb3c
000000e0: 33ae e93d fa12 353c 7cef 973d 1b00 3a3d
000000f0: 3c99 2f3e 596b 013e 0b81 3b3e 8415 09bd
0.0052346103 0.19663453 -0.047654092 -0.036139216 -0.048136886 -0.100159615 -0.08346765 0.13885272
0.025648003 0.17520195 0.2227642 0.16678347 0.07324151 0.21992244 -0.0071013914 0.11897003
0.043048967 0.04393903 -0.013488507 -0.13205849 0.026853334 0.07891012 0.17953064 0.05337915
0.06644959 0.05900186 0.022395853 -0.07061412 -0.008109075 0.080432564 0.14217457 -0.07625357
-0.08264077 0.021649372 -0.11668513 0.12589663 -0.06639982 0.06462201 -0.0246488 -0.06437532
0.15843959 -0.0362214 0.21276589 -0.008396238 0.08796298 0.088260576 0.07147224 0.04734913
-0.0977113 0.10639066 -0.0885904 -0.06462168 -0.044196412 0.18498914 0.14588127 0.030641735
0.11410179 0.011051888 0.07418725 0.045410257 0.17148298 0.12638606 0.18310945 -0.033467785

weight f4 [2, 64]
00000000: 6e9b 8ebd 83fb 90bc 0828 24bd 1682 7ebc
00000010: e00f b8bb 38ca ef3d fcc5 e43d 2a5f aabc
00000020: 501f 3ebd 651a bc3c b4b9 b43c ad11 63be
00000030: 8218 8a3d 7126 8bbd b2f5 42be 934f 40be
00000040: ee4b bf3d 7df0 e2bc 16b8 87bd 04c5 d43d
00000050: bc2a bcbd 2095 46be c1cf 59bd 70a9 f0bc
00000060: bcfc 0a3d d6d4 3cbe 2a88 42be fd3d 9f3d
00000070: 8372 41bd 42cb 05be e97c b9bd 3229 633d
00000080: 0075 6dbd b1bb eb3d 55d4 d8bd 2e3c 09be
00000090: ce11 abbb 3527 bd3d 749e 3bbd 3493 9e3d
000000a0: 2bc0 ebbd 9812 efbc e638 8fbe 8e86 9cbd
000000b0: 4ad3 04be 3d85 f83d 273b 1d3d df28 5d3d
000000c0: c343 12bc c01a 81bd 95c2 95bd f4c1 f33d
000000d0: 3770 ef3d 510e 0a3d 9779 4bbe f796 873d
000000e0: 0b68 d13d 03bb 44be 4d88 9b3c b93c ed3d
000000f0: 1ff7 26bd aa61 76bd 614e 55bd d4b3 92bd
00000100: db2a 3a3d e98a 1ebe 2402 3abd 934b bf3d
00000110: c989 933d 4a9a a1bd 7e74 eabd 03f8 55be
00000120: 9845 33be 172a 84be 47fc 78be 7bf0 95be
00000130: a8fc 30ba 7d88 59be bdff 06be a560 aebd
00000140: 2200 8bbd 6046 39bd 0e43 043e 5394 5f3d
00000150: 7a44 90bd 6e1f 76be 8257 29be 62f4 b4bd
00000160: adb9 f3bc a6a3 38be 844e 60be 698c 973d
00000170: 8b0c 49bd 8c97 e9bd 4dd5 5abe da26 bd3d
00000180: b2fb 8f3d 976b 183d 9a33 fe3d 5c7e 74be
00000190: 5c04 4b3c df69 ecba 78f7 21bd fd20 bc3c
000001a0: a353 01be be75 c53d ac69 7bbe 10f1 78bc
000001b0: 9c51 7bbe 2968 cd3c 038d 473d 99c8 adbc
000001c0: 68b7 9b3c 612f 3dbe f83d 8ebd ee49 2e3d
000001d0: fe0f f33d 3430 64be a9be 0cbe 1506 14bc
000001e0: b8b4 8abd e882 3ebe 0e61 a339 cd82 8d3d
000001f0: 8fca 2bbe 3c26 4fbe 59c9 4ebe 8312 de3d
-0.069632396 -0.017698055 -0.04007724 -0.015533945 -0.005617127 0.11708492 0.11170575 -0.02079733
-0.04641658 0.022961805 0.022061206 -0.22174712 0.06742956 -0.067944415 -0.19039038 -0.18780355
0.09340654 -0.027702564 -0.066269085 0.1038914 -0.091878384 -0.19392824 -0.053176645 -0.02937767
0.033932433 -0.18440565 -0.18997255 0.07775495 -0.047228348 -0.13065818 -0.09057028 0.05545921
-0.057972908 0.11510409 -0.10587374 -0.13401863 -0.0052206283 0.09235994 -0.04580541 0.077429205
-0.115112625 -0.02918367 -0.27973098 -0.07642852 -0.12971225 0.12134788 0.03838649 0.053994056
-0.008927288 -0.0630393 -0.07312504 0.11902228 0.11691325 0.03370506 -0.19870602 0.06620591
0.10224923 -0.19211964 0.018985892 0.115838476 -0.040763017 -0.060151733 -0.0520767 -0.07163206
0.045451026 -0.15482678 -0.045412198 0.093405865 0.07204015 -0.078907564 -0.11448 -0.2089539
-0.17507017 -0.25813362 -0.24314986 -0.29285035 -0.0006751516 -0.21243472 -0.13183494 -0.08514527
-0.06787135 -0.04523313 0.12916204 0.054584812 -0.07044311 -0.24035427 -0.16537288 -0.08835675
-0.029751623 -0.18031177 -0.21904951 0.07399828 -0.049084228 -0.114058584 -0.2137043 0.09235926
0.07030429 0.03721198 0.12412186 -0.23876327 0.012391176 -0.0018036923 -0.039542645 0.022964949
-0.12629561 0.09641598 -0.2455203 -0.0151941925 -0.2454285 0.025074081 0.048718464 -0.021213816
0.019008353 -0.18475105 -0.06945413 0.042550974 0.11868285 -0.22284013 -0.13744606 -0.009034653
-0.067727506 -0.18604624 0.00031162094 0.06909714 -0.16776489 -0.20229429 -0.20193996 0.108433746

bias f4 [2]
00000000: 1938 a0bc 3917 60be
-0.019558 -0.21883859
