checkpoints/actor18.pt (torch, 21960 bytes, 6 tensors)

weight f4 [64, 4]
000000 c6 ae 07 3c 31 cf c2 bc 85 77 ba bb a0 ad 04 3f
       0.008281415 -0.023780437 -0.0056905174 0.5182743
000010 08 7e 8f bd 27 b5 14 bf cf 70 3e be e2 68 7f bc
       -0.070064604 -0.58088917 -0.1859772 -0.015588971
000020 bf 2c 00 3f ef 4f 75 be d3 8b 75 3e 25 e8 33 be
       0.5006828 -0.23956273 0.2397912 -0.17569025
000030 bc 03 05 be aa 35 af be 70 1a 2d 3e be cb 92 be
       -0.12989706 -0.3422063 0.16904616 -0.28671068
000040 71 10 21 be 5a 8d 79 3c 71 ee 9e 3e 65 7b 8e 3e
       -0.15728928 0.015231455 0.3104129 0.27828518
000050 78 97 96 bd 44 d2 c2 3e 8c 29 16 3e 4e 72 a3 3e
       -0.07353109 0.38051045 0.14664286 0.31923145
000060 e1 36 80 3e a5 1e d6 be 53 b1 46 3e 4c 15 ae 3d
       0.2504187 -0.41820255 0.19403581 0.08500156
000070 a2 5b c1 be c9 27 c1 bc f6 30 21 3e a8 1a b7 3d
       -0.37765223 -0.023578541 0.15741333 0.08940631
000080 1e b2 c9 be a4 61 bf be 94 5c 94 3e 36 85 5c 3e
       -0.39393705 -0.3737918 0.28976882 0.21535191
000090 5e ec f8 be ca 7c 9f be cc f6 96 be a7 0b 30 3e
       -0.48617834 -0.31149894 -0.29485166 0.17191945
0000a0 41 66 1c 3e 44 e4 40 bd 96 b4 9b bd d9 7d 36 bd
       0.15273382 -0.04709269 -0.076028034 -0.04455361
0000b0 84 11 e1 3d bc b6 ba be 0f 0f ad 3e 10 2d cd bc
       0.10989669 -0.3646754 0.3380055 -0.025045902
0000c0 89 0e f3 be 31 c2 79 be 5e 61 d0 bc 94 8e ae bd
       -0.47472027 -0.24390484 -0.025437053 -0.08523288
0000d0 46 76 ac bd 1d 7b 7c be 6a b2 a6 3c c3 d6 b0 bd
       -0.08420996 -0.24656339 0.020348746 -0.086347125
0000e0 1a 63 d2 3e f4 8b 23 3e a8 55 f5 bd c0 31 68 bc
       0.41091233 0.15971357 -0.11979228 -0.014172018
0000f0 d0 33 98 be 58 53 03 bf 4d 93 1e 3f 1d 39 79 3d
       -0.2972703 -0.5129905 0.61943513 0.060845483
000100 c8 8d 6e be a5 9e ea 3e 43 ff 03 bf 9b 59 10 be
       -0.23296273 0.4582416 -0.51561373 -0.14096682
000110 67 89 19 bf d1 f2 3b 3e 8c bf 4f be 38 04 9e 3e
       -0.59975284 0.18354346 -0.20287913 0.30862594
000120 71 1b 86 3d a0 d4 84 bd 73 ee a5 3e 8b 58 e4 3d
       0.06548203 -0.064858675 0.32408485 0.11149701
000130 f5 4b f1 be 00 61 96 3d 8f ae f5 3d c8 69 db 3e
       -0.47128263 0.0734272 0.11996185 0.42854142
000140 b0 c2 d0 3d 60 a4 5e 3e 00 ea 44 3b 88 af 4a 3e
       0.10193384 0.21742392 0.0030046701 0.19793522
000150 8f 84 50 3e a9 64 29 be 91 00 a3 be c0 08 0e be
       0.20363067 -0.16542305 -0.3183637 -0.13870525
000160 b2 dd 83 be de 72 23 bf 60 c5 16 3f 3a de ff bc
       -0.25755078 -0.6384715 0.5889492 -0.031233896
000170 ac e7 80 3e 50 96 68 3d 16 7d 1d 3f 51 7c b2 bd
       0.25176752 0.056783974 0.6151899 -0.08715118
000180 e6 72 f4 bc 72 91 f2 be 9f a9 22 3f 5f 8d d6 3d
       -0.029839944 -0.4737659 0.6354007 0.10476183
000190 41 62 86 be fe ee 0b bf 2d 06 7b be 5a 70 14 3d
       -0.26246837 -0.5466155 -0.24514075 0.03623996
0001a0 3e 56 16 bf 79 12 be bd 12 5a 56 3e 1b 6c 15 3f
       -0.58725345 -0.09280867 0.20932797 0.5836808
0001b0 ba 8f 91 3e bc 34 a3 be 97 cb 80 be 36 41 e9 3d
       0.28429967 -0.3187617 -0.25155327 0.11389391
0001c0 bd 10 1a bf f0 a7 aa bc 57 af 05 3f df 09 c4 3e
       -0.6018179 -0.020832032 0.5222067 0.3828878
0001d0 09 4e a6 be ce 43 11 3c 7c a7 55 bc 1e de 79 be
       -0.3248141 0.008866264 -0.01304042 -0.24401137
0001e0 6a 95 0e bf 9f 9d db bd 7c 25 09 3f 66 b4 64 3e
       -0.5569674 -0.10723423 0.5357282 0.22334442
0001f0 f0 47 93 3e b7 1b ab be eb f8 27 3f af 5d 07 be
       0.2876582 -0.33419582 0.65614194 -0.13219331
000200 13 35 de bd c6 46 73 3e 1a 33 14 be 83 59 a6 bd
       -0.10849967 0.23757467 -0.14472619 -0.08122542
000210 73 2c 0f bf 53 ce ff bd c4 35 c7 bd 14 f9 91 3e
       -0.559272 -0.12490525 -0.09727052 0.28510344
000220 8f cc f9 3d 62 00 e1 bd dd ea 4a 3e 8c 28 f6 bc
       0.121972196 -0.10986401 0.19816156 -0.030048631
000230 90 aa c4 3e aa 36 fd be ec bc 53 be a8 8b ca be
       0.3841138 -0.49455768 -0.20677537 -0.39559674
000240 dc 46 01 3e 20 c5 10 be 0c 1a 44 be 00 da 44 bc
       0.12624687 -0.14137697 -0.19150561 -0.012014866
000250 26 2b ae 3c 9c d6 96 3e db f0 5d 3e f2 3b 15 3f
       0.02126081 0.2946061 0.2167391 0.58294594
000260 0c ad 5d be f9 37 a5 bd dc 42 15 3e 28 53 d8 3e
       -0.21648043 -0.080673166 0.14576286 0.42250943
000270 6b a5 3f be 38 8a dc be f6 8f ce 3e a2 86 b9 3e
       -0.18715446 -0.43074203 0.40344208 0.3623553
000280 74 6e 00 3f 47 87 ac be e8 99 71 3e 63 64 df be
       0.5016854 -0.33696958 0.23593867 -0.43631276
000290 08 14 91 bc 0f 33 18 bf f9 fc 14 be df d4 ba 3e
       -0.017709747 -0.5945291 -0.14549626 0.36490533
0002a0 86 8b 07 bf 4a 00 a3 bd 3d d3 88 3e ab b0 06 3e
       -0.5294727 -0.079590395 0.26723662 0.13153331
0002b0 2f 68 e3 3e 3b 34 cd 3e 4b 65 98 be 2a cb 8b bc
       0.44415423 0.4007891 -0.2976478 -0.01706465
0002c0 f3 92 89 3e 88 fb ab 3e 4f 88 62 be a6 36 23 3f
       0.26869926 0.3359034 -0.2212231 0.6375526
0002d0 cd fb bf be d4 a9 74 3d 1f 77 ee 3d 5d 53 aa be
       -0.37496796 0.059732273 0.11643814 -0.33266726
0002e0 29 c7 b1 be 6e 07 c3 be 0b 64 a3 be ad c3 e9 3e
       -0.3472226 -0.38091606 -0.31912264 0.456571
0002f0 8d 07 52 3e 80 23 22 3e 07 c3 c7 3c f9 bd f1 3e
       0.20510693 0.15833855 0.024384988 0.4721525
000300 93 7a d3 3d ae 7e b3 3d dd f9 cc ba 46 72 cb be
       0.103261136 0.087643966 -0.001563843 -0.3973562
000310 fc 18 4f 3e 0e 2a 07 3e 88 aa 0d 3f 4c 8f 12 be
       0.20224375 0.13199636 0.55338335 -0.14312476
000320 dd 7c cb 3e de f7 91 bd 07 ac 14 3f fa 0c 44 3e
       0.397437 -0.07127355 0.5807499 0.19145575
000330 fc 4a b4 3d e6 80 e0 3e be d5 11 3e 20 6a 35 3d
       0.08803365 0.43848342 0.14241692 0.04429066
000340 72 e5 62 be 02 03 b7 be 38 fd 3c bb c8 d1 56 be
       -0.22157839 -0.35744482 -0.0028837454 -0.20978463
000350 f9 d2 1f be 09 c6 77 be 12 01 08 be b0 4d 72 3e
       -0.15607823 -0.24196638 -0.13281658 0.23662448
000360 ba 4a c0 3e e0 8a b1 3c 3c 04 78 be f0 0f 35 3d
       0.37557012 0.021672666 -0.24220365 0.044204652
000370 e0 17 52 3d 8c 3d 16 3e 46 5e fb 3e 30 88 16 3f
       0.0512923 0.14671916 0.49095362 0.58801556
000380 3a 38 95 3e a1 b6 ff 3e 78 a2 30 3c 30 7c c1 be
       0.2914446 0.49944022 0.010780923 -0.3779006
000390 04 e9 02 bf 17 19 2c bf d8 eb 33 3e f3 4c 42 bd
       -0.51136804 -0.67225784 0.17570436 -0.047436666
0003a0 3a 25 34 be b3 cd dc be 92 eb 8a 3c 44 81 f7 3e
       -0.17592326 -0.43125686 0.016958032 0.4834081
0003b0 ba 30 b1 bd 09 32 ad be 5f 5f 27 3f bf 8a 07 be
       -0.08651872 -0.33827236 0.653799 -0.13236521
0003c0 3b 88 60 3e 62 cf 1a be 26 db 88 3d cd 40 8f be
       0.21926968 -0.15118173 0.06682424 -0.27979127
0003d0 d2 0c 2d be f1 77 b0 3d ae 5e 02 3f 21 30 e3 3e
       -0.16899422 0.08616627 0.5092572 0.44372657
0003e0 16 a0 7d 3e b8 cc b2 be a9 2c 45 be c5 d1 9f 3e
       0.24768099 -0.34921813 -0.19255318 0.3121473
0003f0 bc 2e 23 3e ab 70 ff be 3f 13 fe 3e c4 d1 2d 3e
       0.15935796 -0.49890646 0.4962406 0.1697455

bias f4 [64]
000000 aa 9d 98 3e d3 94 ba 3c e8 7b ca 3e f4 40 9f be
       0.29807788 0.022776043 0.39547658 -0.31104243
000010 91 9a de 3e 50 2a e3 be ff a6 1b 3f 3e c8 24 3f
       0.434773 -0.4436822 0.6080169 0.64368045
000020 45 6d 9e be 3f bb 00 be 9c 4e 08 bd 4f fa a3 3e
       -0.3094274 -0.12571429 -0.033278093 0.32026908
000030 cb 38 f4 3e 3f 42 11 3f dc 48 ec be 32 5f 13 be
       0.4769958 0.5674171 -0.46149337 -0.14391783
000040 69 d1 c6 3c 4b 61 2f 3f ea 53 91 3e 53 c9 6b 3d
       0.024269776 0.6850783 0.28384334 0.057565045
000050 0c 8e c9 be a4 80 11 3f 9e 80 96 be d9 b5 aa 3e
       -0.39366186 0.56836915 -0.29395002 0.33341864
000060 cf 8d fa 3e 5c 96 55 be 59 46 85 bd 4b 4a 82 3d
       0.48936316 -0.20858139 -0.065075584 0.063618265
000070 cd de 0d 3f c4 bb c7 be 17 c8 32 be 73 80 49 3f
       0.5541809 -0.3901044 -0.1745914 0.7871162
000080 bf ac 2d be 4f 26 69 be 64 9e 5d be a8 70 ea be
       -0.16960429 -0.2276852 -0.21642452 -0.45789075
000090 48 c6 b5 be 40 ca 98 be c7 db 01 3f 65 c9 71 3e
       -0.3550284 -0.29841805 0.5072598 0.23611982
0000a0 c6 1a b7 bd ee 51 01 3f 07 dd 0f 3f 77 85 b5 be
       -0.089406535 0.5051564 0.56196636 -0.35453388
0000b0 f6 89 15 bd 34 b7 83 be a2 fc 51 be 8f 86 1b 3f
       -0.036508523 -0.2572571 -0.20506528 0.60752195
0000c0 cb 32 ba be 90 9a 12 3f 2b a9 1a 3f 09 a1 7f be
       -0.36366877 0.57267094 0.6041438 -0.24963774
0000d0 7f 3c 99 be be 84 69 be 2c 18 75 be 9d 3c f8 3d
       -0.29928967 -0.22804543 -0.23935002 0.12120936
0000e0 e8 16 cb be 24 5a 0c 3f 17 14 88 be 7a 32 5b 3f
       -0.39665914 0.54825044 -0.26577827 0.85623896
0000f0 01 0f 39 be 10 d4 09 3f 20 47 e4 3e 6d f6 e2 3e
       -0.1807213 0.53839207 0.44585514 0.44328633

weight f4 [64, 64]
000000 7d e9 1b be 51 aa e6 bd e2 64 ff bd 4c 7a fa 3d
       -0.15225787 -0.11262954 -0.12470414 0.122303575
000010 bc 8e a9 bb 68 29 4e bd a6 70 3f 3d 9e 9c aa 3c
       -0.005174486 -0.050332457 0.04673829 0.020826634
000020 bd 7d a7 bd 65 d5 ab bb eb a0 6e bc 6d ac c2 3c
       -0.081782795 -0.0052439445 -0.014564733 0.02376386
000030 8d 9f 2a bd 29 ce c2 3d 00 84 73 39 92 90 b4 bd
       -0.041656066 0.09511978 0.0002322346 -0.08816637
000040 11 7f 4a 3d 71 df 33 3d b9 95 ba bc 53 fd 27 3c
       0.049437586 0.043914262 -0.022776471 0.010253268
000050 40 ac 72 bc 0c b9 54 bd 5d d8 8b 3d 76 f8 a5 3d
       -0.014811575 -0.051934287 0.068283774 0.08104031
000060 18 70 e5 3d e0 73 86 3c 9a 9d 9e bd 14 19 ca 3c
       0.11203021 0.016412675 -0.07744904 0.024670161
000070 0d 3a 09 be ad b8 e5 3c 72 e7 18 3d a7 11 85 bc
       -0.13401051 0.028042162 0.0373301 -0.016243769
000080 b9 33 72 3d 3a d9 35 3c 47 e6 1e bd ae 96 b8 3d
       0.059131358 0.011099154 -0.03879383 0.09013115
000090 60 a4 fb 3c b7 ef ce bd 6e 64 51 3c cf 88 a6 3d
       0.030718029 -0.10104316 0.012780292 0.08131563
0000a0 07 09 a9 bd f7 22 8e 3d 33 04 3f 3d 90 4f eb bd
       -0.08253675 0.06940263 0.046634864 -0.11489785
0000b0 d3 14 11 be cd ef 14 bd 9e 4b 07 bd bc 1b e8 3c
       -0.141681 -0.036361504 -0.0330311 0.028333537
0000c0 64 8c d6 3d d4 b2 52 3d 6c 4c 9e bd 5f ba c7 3d
       0.10475996 0.051440075 -0.0772942 0.09752344
0000d0 fc 25 8c 3d 39 fa a8 bd 96 24 a0 bd 69 c1 69 3d
       0.068431824 -0.08250851 -0.07819478 0.057069216
0000e0 b4 47 c4 bd 74 c3 c9 3d 18 fb 5e bc 2b d7 61 3c
       -0.09583989 0.09851733 -0.01360967 0.01378421
0000f0 90 21 03 3d 07 3c 41 3d 63 7c dd 3d dd f7 9f 3d
       0.03201443 0.047176387 0.108147405 0.07810948
000100 63 81 df 3d f7 4b cb 3d 49 ad 50 3e e0 d8 f3 3c
       0.109133504 0.099265985 0.20378603 0.0297665
000110 77 32 69 3e 9a 06 9c 3d 9d 6a 78 3e 20 4d 1a 3e
       0.22773157 0.07618447 0.2425942 0.15068483
000120 cb 5d 2a 3d f6 ab 8b 3e 9b 23 55 bd cb c6 54 3e
       0.041593354 0.27279633 -0.05203591 0.20778958
000130 df f5 27 3e b2 31 0a 3e fc 46 56 bd 08 d0 ee 3d
       0.16402386 0.1349552 -0.05231379 0.116607726
000140 78 9b 82 3d a8 ef 83 3e 00 bc 90 3e a6 6d a6 3d
       0.063773096 0.2576878 0.28268433 0.081263825
000150 b0 77 ec 3d a4 c3 59 3e 42 d1 8d 3e 6f ab 26 bd
       0.11546266 0.21266037 0.27698714 -0.040690836
000160 b1 cb 8c 3e a9 00 fc 3d 70 c0 80 3e 7c ad 4c 3e
       0.27499154 0.123048134 0.25146818 0.19988054
000170 78 35 c3 3d 5b b7 7b bd 95 f5 8f 3e fb 10 63 3d
       0.09531683 -0.06145416 0.28117052 0.055436116
000180 e4 cb 81 bd 35 4a 04 3e 99 9e 8f bd b4 47 a6 3d
       -0.06337717 0.12918933 -0.07012672 0.08119145
000190 80 47 c9 ba 1e 9f 0c 3e 72 31 9a 3e dc 23 3e 3e
       -0.0015356392 0.13732573 0.3011585 0.18568367
0001a0 42 de b5 3d 6d 77 77 3e 46 a7 c5 3d 21 63 b9 3d
       0.08880283 0.24166651 0.096510455 0.090521105
0001b0 6a fe 56 3d e0 7c e2 3d c5 36 75 3e 35 3c 17 3e
       0.052488722 0.11058974 0.23946674 0.14769061
0001c0 07 3b c1 3c 37 1b 33 3e 3f bb 6e 3e 7c f7 ff 3c
       0.023587717 0.1749085 0.23313616 0.03124594
0001d0 88 65 92 3d 61 eb 28 3e 8c 9c c7 3d 64 91 d1 3c
       0.07148272 0.1649604 0.09746656 0.025582023
0001e0 e5 bd 4a bd f2 57 9d 3e b0 04 dd 3d 22 94 d9 3d
       -0.049497504 0.3073116 0.1079191 0.10623957
0001f0 89 07 5b bd 25 a7 43 3e 17 8e 15 3e 8c 1e c3 3e
       -0.053473983 0.1910673 0.14604984 0.38109243
000200 f0 83 32 3d 00 2e be 39 38 66 70 bd 48 f2 55 3d
       0.043582857 0.00036273897 -0.058691233 0.05223301
000210 e0 7d 1e bc 68 a8 43 3d 70 55 61 3d 3e cc 92 bd
       -0.009673566 0.047768027 0.05501312 -0.07167862
000220 b2 da c0 bd 20 5d ab bc b8 df f0 3c f8 a5 48 3d
       -0.09416713 -0.020918429 0.029403552 0.048986405
000230 32 ed f2 bd 14 52 86 bd 9a 73 f7 bd ac 33 da bd
       -0.11861648 -0.06558624 -0.12082596 -0.10654387
000240 90 67 94 3d 1c db ae 3d 24 92 96 bd 08 5c 4e bd
       0.072463155 0.085378855 -0.07352093 -0.050380737
000250 a8 23 2d bd c8 49 99 3c f6 eb c2 3d 18 20 f2 bd
       -0.042270333 0.01871194 0.09517662 -0.11822528
000260 bc a2 57 bd 38 a3 cb bc 80 68 9a bc c8 73 fc bc
       -0.05264543 -0.024858102 -0.018848658 -0.030816928
000270 3c 4a 72 bd a8 8e 73 3d d0 9b f3 3c 24 ea 33 bd
       -0.059152827 0.05946222 0.029737383 -0.043924466
000280 3c 8b 21 bd a4 c0 7f bd 8c 3f e7 3d b2 8b e0 3d
       -0.039439425 -0.062439576 0.112914175 0.10964145
000290 3c 31 2e 3d 00 8a 0a bc 9a 81 d1 bd 20 93 bc 3c
       0.042527422 -0.008455753 -0.10229798 0.023019373
0002a0 c0 1b 70 3b d6 7f ff 3d 9e 9d ae bd 8c ed 65 bd
       0.0036637634 0.12475555 -0.08526157 -0.056134745
0002b0 bc d2 98 bd 60 da 9f bd 04 25 bb bd c0 3e 8d bd
       -0.074620694 -0.078053236 -0.091379195 -0.06896734
0002c0 70 e6 32 3d f8 04 e3 bc f8 57 2f 3d c4 6b 4b bd
       0.043676794 -0.02771233 0.042808503 -0.04966332
0002d0 88 b7 69 3d ba 95 ab 3d 74 e7 aa bd d0 e5 97 bd
       0.057059795 0.083781675 -0.083449274 -0.0741688
0002e0 b6 54 ca 3d 14 b6 28 bd d0 c2 a6 bd d8 f4 69 bd
       0.098794386 -0.04118927 -0.08142626 -0.057118267
0002f0 48 1e 46 bd f0 18 b1 bd a4 fa 25 3d 4a 51 ad 3d
       -0.048368722 -0.086473346 0.040522233 0.0846277
000300 fe bc 06 be b5 90 fe bc eb 7e d6 3d 86 8b 8a 3d
       -0.13158032 -0.031074861 0.104734264 0.06764893
000310 4c 23 38 bd aa a3 9e bd 64 81 9a 3d 57 d1 1f 3c
       -0.044955537 -0.0774606 0.075442106 0.0097545
000320 24 14 fb bd 22 2e c0 bc 62 69 9c 3d 99 e6 b1 3d
       -0.12259701 -0.023459498 0.07637288 0.08686561
000330 a4 16 cb 3d a9 ca a3 bd f0 fe d8 3d 9b a2 f8 bd
       0.09916428 -0.07997639 0.105955005 -0.121403895
000340 85 22 29 bc fb 7d ea bd f0 78 4a bd a8 ed 8c 3d
       -0.0103231715 -0.1144981 -0.04943174 0.06881267
000350 80 6d c3 ba 14 34 86 3d f1 61 eb bd 09 1c d8 bc
       -0.0014909953 0.06552902 -0.1149329 -0.026380556
000360 36 96 f5 3c 4c a2 c2 bd 6d b9 ef 3c 1a 98 13 3d
       0.029978853 -0.09503612 0.029263223 0.036033727
000370 79 73 f8 bc 57 a8 a4 3d 1c 1f 7d bc 1a d6 cb 3d
       -0.0303285 0.08039921 -0.015449312 0.09952946
000380 e1 80 4e bd 82 d9 bc 3d a1 f4 9d 3d 5c e8 72 bd
       -0.050415877 0.09221174 0.07712675 -0.059303626
000390 64 89 c4 3d a5 cb e4 bd 64 e6 ac bd cf 9e 06 bc
       0.09596518 -0.111716546 -0.08442381 -0.008216574
0003a0 97 56 b2 3c d9 86 bf 3d 0c 4e a2 3d ae 10 4c bd
       0.021769805 0.09351892 0.079250425 -0.049820594
0003b0 3e f8 23 bd 74 5f ef 3d ce f8 00 be 06 08 80 3d
       -0.040031664 0.11688128 -0.12594911 0.0625153
0003c0 c0 1d c9 bd 8c dc 92 bd 78 f4 8a 3c fd 75 b6 bd
       -0.098201275 -0.07170972 0.016962275 -0.08909223
0003d0 3b 6d 1e 3c 58 aa bf bc 08 26 8a 3d 94 76 a8 3d
       0.009669597 -0.023396656 0.06745535 0.08225742
0003e0 7c 72 7b 3d 06 fa e2 bc 62 3d 8e 3d 64 48 87 bd
       0.061388478 -0.027707111 0.069453016 -0.06605604
0003f0 f2 08 d1 3d 9c 1e 1d be 8d c5 ad bc 1b 02 1a 3d
       0.10206784 -0.15343708 -0.021212364 0.037599664

bias f4 [64]
000000 c0 ee 65 3c 9c d2 5f 3e f0 30 43 bd b7 06 14 bd
       0.014033973 0.21857685 -0.047654092 -0.036139216
000010 2f 2b 45 bd 7c 20 cd bd 16 f1 aa bd 7a be 1e 3e
       -0.048136886 -0.100159615 -0.08346765 0.15502349
000020 02 7a 39 3e 74 fe 41 3e 4b f4 7c 3e fb b8 8e 3e
       0.18112949 0.18944722 0.24702565 0.27875504
000030 94 1f 95 3d 95 b3 70 3e a5 06 a1 3d a9 59 0f 3e
       0.07281414 0.23506005 0.078625955 0.13999046
000040 1d 54 30 3d 6a f9 33 3d e6 fe 5c bc 57 3a 07 be
       0.043048967 0.04393903 -0.013488507 -0.13205849
000050 86 fb db 3c 35 f5 cf 3d f0 21 50 3e 18 a4 5a 3d
       0.026853334 0.101541914 0.20325446 0.05337915
000060 f5 e3 0f 3e 45 86 94 3d 57 f1 13 3d 23 9e 90 bd
       0.14051802 0.072521724 0.03611883 -0.07061412
000070 ed db 04 bc a6 05 d1 3d 13 9f 20 3e d5 2a 9c bd
       -0.008109075 0.102061555 0.15685682 -0.07625357
000080 90 3f a9 bd 1e 67 ac 3c 9d f8 ee bd 84 f8 0d 3e
       -0.08264077 0.021045264 -0.11668513 0.13864332
000090 a1 fc 87 bd 11 58 84 3d 48 ec c9 bc fa 28 85 bd
       -0.06639982 0.0646211 -0.0246488 -0.06501956
0000a0 24 d6 37 3e e4 5c 14 bd 6f ed b4 3e 60 90 09 bc
       0.17952782 -0.0362214 0.35337397 -0.008396238
0000b0 e0 c9 ce 3d 4a 98 b2 3d 0a 60 92 3d 29 f1 41 3d
       0.10097098 0.08720453 0.07147224 0.04734913
0000c0 dd 1c c8 bd e1 05 fc 3d e2 6e b5 bd 5f 58 84 bd
       -0.0977113 0.12305809 -0.0885904 -0.06462168
0000d0 4c 07 35 bd c0 e5 4b 3e 1c 64 80 3e 60 04 fb 3c
       -0.044196412 0.19911861 0.25076377 0.030641735
0000e0 33 ae e9 3d bf 35 cb 3c 7c ef 97 3d 1b 00 3a 3d
       0.11410179 0.024805902 0.07418725 0.045410257
0000f0 51 b9 43 3e eb df 10 3e 52 74 4b 3e 84 15 09 bd
       0.19113661 0.14147918 0.19868591 -0.033467785

weight f4 [2, 64]
000000 c4 07 96 bd f0 15 5f bd 08 28 24 bd 16 82 7e bc
       -0.073257 -0.05446428 -0.04007724 -0.015533945
000010 e0 0f b8 bb 38 ca ef 3d fc c5 e4 3d fd 9e 67 bd
       -0.005617127 0.11708492 0.11170575 -0.056548107
000020 75 d3 6b be 73 ca 86 bc ca 2d b3 bd 7e 6f ba be
       -0.23029883 -0.016453957 -0.08748968 -0.36413187
000030 d4 07 8a 3d 17 3d d4 bd 1d e4 ae be 57 10 6f be
       0.06739774 -0.103632145 -0.34158412 -0.23346077
000040 ee 4b bf 3d 7d f0 e2 bc 16 b8 87 bd 04 c5 d4 3d
       0.09340654 -0.027702564 -0.066269085 0.1038914
000050 bc 2a bc bd 1a 24 90 be 30 62 de bd 70 a9 f0 bc
       -0.091878384 -0.28152543 -0.108585715 -0.02937767
000060 52 f7 44 bd d6 b0 55 be 0c 4b 68 be fd 3d 9f 3d
       -0.048087426 -0.20868239 -0.22684878 0.07775495
000070 83 72 41 bd 3b 8e 2e be 11 e4 ff bd 32 29 63 3d
       -0.047228348 -0.17046444 -0.12494672 0.05545921
000080 00 75 6d bd 09 b8 eb 3d 55 d4 d8 bd 1c ad 22 be
       -0.057972908 0.11509711 -0.10587374 -0.15886348
000090 ce 11 ab bb 35 27 bd 3d 74 9e 3b bd dc 82 9e 3d
       -0.0052206283 0.09235994 -0.04580541 0.07739803
0000a0 b2 d4 1c be 98 12 ef bc 8d af e4 be 8e 86 9c bd
       -0.15315512 -0.02918367 -0.44665185 -0.07642852
0000b0 b0 10 25 be f3 61 f8 3d 27 3b 1d 3d df 28 5d 3d
       -0.16119647 0.12128057 0.03838649 0.053994056
0000c0 c3 43 12 bc c6 ab c7 bd 95 c2 95 bd f4 c1 f3 3d
       -0.008927288 -0.0974956 -0.07312504 0.11902228
0000d0 37 70 ef 3d 19 ab e8 3b 27 80 b5 be f7 96 87 3d
       0.11691325 0.0071004746 -0.35449335 0.06620591
0000e0 0b 68 d1 3d c8 aa 65 be 4d 88 9b 3c b9 3c ed 3d
       0.10224923 -0.22428429 0.018985892 0.115838476
0000f0 93 a4 a1 bd d9 b6 b7 bd ff 01 ad bd d4 b3 92 bd
       -0.07892718 -0.08970422 -0.08447646 -0.07163206
000100 c1 24 2f 3d d2 b4 2e be 24 02 3a bd 93 4b bf 3d
       0.04275966 -0.17061165 -0.045412198 0.093405865
000110 c9 89 93 3d 4a 9a a1 bd 7e 74 ea bd 3a e3 67 be
       0.07204015 -0.078907564 -0.11448 -0.22645274
000120 55 2e c0 be 28 e9 8c be 2f a3 95 be e0 ca d7 be
       -0.3753535 -0.27521634 -0.29226062 -0.4214697
000130 df 28 4d ba 4c b6 6c be 80 b8 6a be ac c6 de bd
       -0.00078262197 -0.23116416 -0.22921944 -0.108777374
000140 22 00 8b bd 60 46 39 bd 0e 43 04 3e 53 94 5f 3d
       -0.06787135 -0.04523313 0.12916204 0.054584812
000150 7a 44 90 bd 4c 8d 8a be 00 42 41 be 62 f4 b4 bd
       -0.07044311 -0.27060926 -0.18872833 -0.08835675
000160 6b 28 51 be 89 69 46 be 9b d3 70 be 69 8c 97 3d
       -0.20425574 -0.19376196 -0.23518221 0.07399828
000170 8b 0c 49 bd 3e ad 08 be 46 8d 6c be da 26 bd 3d
       -0.049084228 -0.13347337 -0.23100767 0.09235926
000180 b2 fb 8f 3d 60 4f 18 3d 9a 33 fe 3d e0 eb 80 be
       0.07030429 0.037185073 0.12412186 -0.25179958
000190 5c 04 4b 3c 0f 6a ec ba 78 f7 21 bd 32 eb bb 3c
       0.012391176 -0.0018036979 -0.039542645 0.022939298
0001a0 b9 f8 13 be be 75 c5 3d e1 38 d1 be 10 f1 78 bc
       -0.14450349 0.09641598 -0.40863708 -0.0151941925
0001b0 f4 de 85 be be ef cb 3c 03 8d 47 3d 99 c8 ad bc
       -0.26146662 0.024894591 0.048718464 -0.021213816
0001c0 68 b7 9b 3c bc e7 4f be f8 3d 8e bd ee 49 2e 3d
       0.019008353 -0.20303243 -0.06945413 0.042550974
0001d0 fe 0f f3 3d 05 44 72 be 77 43 81 be 15 06 14 bc
       0.11868285 -0.2365876 -0.25246784 -0.009034653
0001e0 b8 b4 8a bd 1d f1 4f be ff 60 a3 39 cd 82 8d 3d
       -0.067727506 -0.20306821 0.0003116205 0.06909714
0001f0 ce 65 3f be c6 1a 5f be 32 9d 60 be 83 12 de 3d
       -0.18691179 -0.21787557 -0.21934965 0.108433746

bias f4 [2]
000000 99 64 e7 bc ef f2 67 be
       -0.02824621 -0.22651266
