checkpoints/actor16.pt (torch, 21960 bytes, 6 tensors)

weight f4 [64, 4]
0.0019566254 -0.017834248 -0.0137737775 0.51265895 -0.075077556 -0.57608527 -0.19240834 -0.020104552
0.4740051 -0.18468462 0.19178218 -0.2309188 -0.12989706 -0.3422063 0.16904616 -0.28671068
-0.16357274 0.02104986 0.30243278 0.2728012 -0.07353109 0.38051045 0.14664286 0.31923145
0.22481541 -0.3741139 0.14799578 0.041214224 -0.38631675 -0.015150819 0.14618665 0.08139805
-0.3927329 -0.37168658 0.28796944 0.21322712 -0.48497832 -0.30888388 -0.2970868 0.16927223
0.15273382 -0.04709269 -0.076028034 -0.04455361 0.103039026 -0.35811025 0.3291737 -0.031263214
-0.48299232 -0.2358932 -0.036157243 -0.09282946 -0.09553689 -0.23531821 0.005477218 -0.09703257
0.41091233 0.15971357 -0.11979228 -0.014172018 -0.29597884 -0.51020205 0.61700404 0.058043357
-0.23355645 0.4582089 -0.516117 -0.14091557 -0.6060642 0.1895079 -0.21097228 0.30299369
0.05817751 -0.057845045 0.31465438 0.1048555 -0.47747496 0.07918858 0.11214029 0.4231078
0.10193384 0.21742392 0.0030046701 0.19793522 0.17754944 -0.11002536 -0.36904633 -0.19463505
-0.2560606 -0.63580906 0.5867077 -0.03393339 0.22000515 0.1087694 0.5693479 -0.13988674
-0.055250186 -0.43350548 0.59194183 0.065142214 -0.261275 -0.54407895 -0.24731947 0.03367885
-0.59204644 -0.08817311 0.20318644 0.5793109 0.27767563 -0.31245053 -0.2599565 0.10790083
-0.60845196 -0.014482119 0.5136479 0.37688345 -0.3248141 0.008866264 -0.01304042 -0.24401137
-0.55595297 -0.10510684 0.5338588 0.22119996 0.26194766 -0.2861456 0.6090372 -0.18022574
-0.10849967 0.23757467 -0.14472619 -0.08122542 -0.5581102 -0.12287051 -0.09900549 0.2830468
0.121972196 -0.10986401 0.19816156 -0.030048631 0.3841138 -0.49455768 -0.20677537 -0.39559674
0.12624687 -0.14137697 -0.19150561 -0.012014866 0.02317487 0.29798022 0.21386497 0.57952183
-0.24181251 -0.040658407 0.10245293 0.38315442 -0.19234183 -0.42591253 0.3968463 0.35780308
0.5016854 -0.33696958 0.23593867 -0.43631276 -0.022350848 -0.5902327 -0.15142372 0.36086473
-0.5353292 -0.07411298 0.2597597 0.12636492 0.44415423 0.4007891 -0.2976478 -0.01706465
0.26166254 0.34282252 -0.23027033 0.63099647 -0.37496796 0.059732273 0.11643814 -0.33266726
-0.34629524 -0.37900534 -0.32079652 0.45465592 0.1984968 0.1645487 0.015922323 0.46629453
0.103261136 0.087643966 -0.001563843 -0.3973562 0.17337038 0.18251483 0.50750935 -0.19410431
0.3717828 -0.024494344 0.5337307 0.1447315 0.08803365 0.43848342 0.14241692 0.04429066
-0.22157839 -0.35744482 -0.0028837454 -0.20978463 -0.15487908 -0.23947279 -0.13498148 0.23410818
0.37557012 0.021672666 -0.24220365 0.044204652 0.04460459 0.15296164 0.48252806 0.58211833
0.2914446 0.49944022 0.010780923 -0.3779006 -0.5369609 -0.6282304 0.13033625 -0.09115653
-0.1749368 -0.42915666 0.015128894 0.48129788 -0.11220607 -0.29189983 0.60692686 -0.17865542
0.21926968 -0.15118173 0.06682424 -0.27979127 -0.17513861 0.09200471 0.501354 0.43820864
0.22201125 -0.300539 -0.24056762 0.26339635 0.13437828 -0.46146038 0.4546042 0.13312405
00000000: ba3a 003b 2119 92bc 69ab 61bc 9e3d 033f
00000010: 43c2 99bd 537a 13bf b106 45be 4db2 a4bc
00000020: ccb0 f23e f71d 3dbe 8c62 443e fa75 6cbe
00000030: bc03 05be aa35 afbe 701a 2d3e becb 92be
00000040: 9d7f 27be c270 ac3c 78d8 9a3e 99ac 8b3e
00000050: 7897 96bd 44d2 c23e 8c29 163e 4e72 a33e
00000060: 0336 663e db8b bfbe 358c 173e 3fd0 283d
00000070: 4fcb c5be 243b 78bc f4b1 153e 05b4 a63d
00000080: 4914 c9be b44d bebe bb70 933e 3658 5a3e
00000090: 144f f8be 0726 9ebe c31b 98be b355 2d3e
000000a0: 4166 1c3e 44e4 40bd 96b4 9bbd d97d 36bd
000000b0: 2006 d33d 3a5a b7be 7589 a83e db0d 00bd
000000c0: c54a f7be fd8d 71be 9e19 14bd 5f1d bebd
000000d0: d8a8 c3bd 42f7 70be 3c7a b33b 03b9 c6bd
000000e0: 1a63 d23e f48b 233e a855 f5bd c031 68bc
000000f0: 8a8a 97be 9a9c 02bf faf3 1d3f dfbe 6d3d
00000100: 6c29 6fbe 5b9a ea3e 3e20 04bf 2c4c 10be
00000110: 0627 1bbf 5c0e 423e 1e09 58be fd21 9b3e
00000120: 8a4b 6e3d edee 6cbd 611a a13e 7bbe d63d
00000130: 9977 f4be 9f2d a23d cfa9 e53d 96a1 d83e
00000140: b0c2 d03d 60a4 5e3e 00ea 443b 88af 4a3e
00000150: 85cf 353e fa54 e1bd a4f3 bcbe 694e 47be
00000160: 601a 83be 62c4 22bf 7a32 163f bdfd 0abd
00000170: 0849 613e 7ec2 de3d c9c0 113f 783e 0fbe
00000180: 054e 62bd 6ef4 ddbe 8089 173f 4869 853d
00000190: d6c5 85be c248 0bbf 5141 7dbe d5f2 093d
000001a0: 5b90 17bf 1a94 b4bd 1b10 503e b84d 143f
000001b0: 802b 8e3e 84f9 9fbe 0519 85be 1cfb dc3d
000001c0: 82c3 1bbf 6946 6dbc 6e7e 033f def6 c03e
000001d0: 094e a6be ce43 113c 7ca7 55bc 1ede 79be
000001e0: ef52 0ebf 4142 d7bd f8aa 083f 3e82 623e
000001f0: 011e 863e ad81 92be dde9 1b3f 198d 38be
00000200: 1335 debd c646 733e 1a33 14be 8359 a6bd
00000210: 4fe0 0ebf 89a3 fbbd 64c3 cabd 83eb 903e
00000220: 8fcc f93d 6200 e1bd ddea 4a3e 8c28 f6bc
00000230: 90aa c43e aa36 fdbe ecbc 53be a88b cabe
00000240: dc46 013e 20c5 10be 0c1a 44be 00da 44bc
00000250: 3ad9 bd3c dd90 983e 6bff 5a3e 8b5b 143f
00000260: b39d 77be 6e89 26bd d7d2 d13d d12c c43e
00000270: 42f5 44be 3511 dabe 702f cb3e f731 b73e
00000280: 746e 003f 4787 acbe e899 713e 6364 dfbe
00000290: 2019 b7bc 7d19 17bf d20e 1bbe 43c3 b83e
000002a0: 560b 09bf 8cc8 97bd 39ff 843e ce65 013e
000002b0: 2f68 e33e 3b34 cd3e 4b65 98be 2acb 8bbc
000002c0: a2f8 853e 6f86 af3e fccb 6bbe fc88 213f
000002d0: cdfb bfbe d4a9 743d 1f77 ee3d 5d53 aabe
000002e0: 9c4d b1be fd0c c2be 713f a4be a9c8 e83e
000002f0: bf42 4b3e 747f 283e 886f 823c 28be ee3e
00000300: 937a d33d ae7e b33d ddf9 ccba 4672 cbbe
00000310: 0188 313e 2be5 3a3e 22ec 013f 48c3 46be
00000320: 515a be3e 5da8 c8bc 93a2 083f 7f34 143e
00000330: fc4a b43d e680 e03e bed5 113e 206a 353d
00000340: 72e5 62be 0203 b7be 38fd 3cbb c8d1 56be
00000350: 9f98 1ebe 5b38 75be 9638 0abe 0eba 6f3e
00000360: ba4a c03e e08a b13c 3c04 78be f00f 353d
00000370: 4db3 363d faa1 1c3e eb0d f73e b505 153f
00000380: 3a38 953e a1b6 ff3e 78a2 303c 307c c1be
00000390: 4576 09bf b5d3 20bf de76 053e 46b0 babd
000003a0: a222 33be 6cba dbbe 2edf 773c ad6c f63e
000003b0: 4ccc e5bd e573 95be 8f5f 1b3f 72f1 36be
000003c0: 3b88 603e 62cf 1abe 26db 883d cd40 8fbe
000003d0: 8957 33be f76c bc3d bc58 003f e25c e03e
000003e0: eb56 633e 3fe0 99be 5c57 76be e3db 863e
000003f0: 769a 093e 8944 ecbe e2c1 e83e ac51 083e

bias f4 [64]
0.27622774 0.0041283974 0.3509817 -0.31104243 0.413711 -0.4436822 0.5661635 0.6155548
-0.31275254 -0.13079381 -0.033278093 0.2965345 0.44998235 0.53541964 -0.46149337 -0.14932209
0.019868515 0.6632069 0.25911078 0.035485752 -0.39366186 0.52373445 -0.2984535 0.28960425
0.44814923 -0.21335304 -0.082876034 0.03865149 0.5312851 -0.3901044 -0.17841017 0.7439538
-0.16960429 -0.23100446 -0.21642452 -0.45789075 -0.3550284 -0.30407143 0.46601957 0.21755293
-0.089406535 0.48901135 0.5416088 -0.35453388 -0.061089233 -0.2572571 -0.20864132 0.58536744
-0.36366877 0.53036404 0.56155026 -0.24963774 -0.29928967 -0.2326142 -0.23935002 0.09770831
-0.39665914 0.5056391 -0.2694759 0.8138406 -0.1807213 0.5169592 0.40187663 0.40275952
00000000: b96d 8d3e 8247 873b e0b3 b33e f440 9fbe
00000010: eed1 d33e 502a e3be 17f0 103f 0095 1d3f
00000020: 1a21 a0be d0ee 05be 9c4e 08bd 5fd3 973e
00000030: 1664 e63e 4311 093f dc48 ecbe e4e7 18be
00000040: 4cc3 a23c edc7 293f 2baa 843e 8259 113d
00000050: 0c8e c9be 7613 063f e6ce 98be 0247 943e
00000060: d173 e53e 3879 5abe e9ba a9bd 0651 1e3d
00000070: 4d02 083f c4bb c7be 28b1 36be c273 3e3f
00000080: bfac 2dbe 6f8c 6cbe 649e 5dbe a870 eabe
00000090: 48c6 b5be 40af 9bbe 1e9a ee3e 32c6 5e3e
000000a0: c61a b7bd b25f fa3e e0a6 0a3f 7785 b5be
000000b0: b438 7abd 34b7 83be 12a6 55be a4da 153f
000000c0: cb32 babe f0c5 073f c2c1 0f3f 09a1 7fbe
000000d0: 7f3c 99be 6b32 6ebe 2c18 75be 4b1b c83d
000000e0: e816 cbbe 9071 013f bff8 89be dc57 503f
000000f0: 010f 39be 7057 043f c6c2 cd3e 7f36 ce3e

weight f4 [64, 64]
-0.15885101 -0.1227634 -0.13754725 0.122303575 -0.016960938 -0.050332457 0.023783905 0.0057813264
-0.08146481 -0.0029188108 -0.014564733 0.0030344685 -0.059547663 0.07697997 0.0002322346 -0.087996714
0.04943152 0.0321116 -0.04670143 0.0043727704 -0.014811575 -0.06269809 0.069881804 0.07102733
0.07985146 0.018083211 -0.07906051 -0.010498775 -0.14239271 0.028042162 0.03824576 -0.031638682
0.059131358 0.012888218 -0.03879383 0.09013115 0.030718029 -0.10081871 -0.019579155 0.076239266
-0.08253675 0.06351549 0.034417287 -0.11489785 -0.15004508 -0.036361504 -0.03295618 0.018215729
0.10475996 0.040486448 -0.09668179 0.09752344 0.068431824 -0.073452964 -0.07819478 0.051161364
-0.09583989 0.07121181 -0.013537912 -0.002587259 0.03201443 0.038138397 0.08377224 0.042848088
0.10506314 0.09620939 0.17332049 0.0297665 0.22146079 0.07618447 0.2041451 0.1394554
0.04055596 0.2712683 -0.05203591 0.1998972 0.1496562 0.11689602 -0.05231379 0.11527228
0.06370136 0.24979383 0.2723068 0.07835626 0.11546266 0.18475516 0.2758282 -0.066305
0.23501277 0.121707715 0.24969703 0.19485906 0.09012473 -0.06145416 0.27991718 0.022328245
-0.06337717 0.12799406 -0.07012672 0.08119145 -0.0015356392 0.13593943 0.26267844 0.18235932
0.08880283 0.23771583 0.08912596 0.090521105 0.049974166 0.11058974 0.2383198 0.14149697
0.023587717 0.14868738 0.19538903 0.03124594 0.07148272 0.1636767 0.09746656 0.022227665
-0.049497504 0.26741487 0.106809154 0.07263221 -0.053473983 0.18562125 0.10401859 0.34342203
0.043582857 0.00036273897 -0.058691233 0.05223301 -0.009673566 0.047768027 0.05501312 -0.07167862
-0.09416713 -0.020918429 0.029403552 0.048986405 -0.11861648 -0.06558624 -0.12082596 -0.10654387
0.072463155 0.085378855 -0.07352093 -0.050380737 -0.042270333 0.01871194 0.09517662 -0.11822528
-0.05264543 -0.024858102 -0.018848658 -0.030816928 -0.059152827 0.05946222 0.029737383 -0.043924466
-0.039439425 -0.062439576 0.112914175 0.10964145 0.042527422 -0.008455753 -0.10229798 0.023019373
0.0036637634 0.12475555 -0.08526157 -0.056134745 -0.074620694 -0.078053236 -0.091379195 -0.06896734
0.043676794 -0.02771233 0.042808503 -0.04966332 0.057059795 0.083781675 -0.083449274 -0.0741688
0.098794386 -0.04118927 -0.08142626 -0.057118267 -0.048368722 -0.086473346 0.040522233 0.0846277
-0.13158032 -0.031074861 0.104734264 0.06764893 -0.044955537 -0.0774606 0.075442106 0.0097545
-0.12259701 -0.023459498 0.07637288 0.08686561 0.09916428 -0.07997639 0.105955005 -0.121403895
-0.0103231715 -0.1144981 -0.04943174 0.06881267 -0.0014909953 0.06552902 -0.1149329 -0.026380556
0.029978853 -0.09503612 0.029263223 0.036033727 -0.0303285 0.08039921 -0.015449312 0.09952946
-0.050415877 0.09221174 0.07712675 -0.059303626 0.09596518 -0.111716546 -0.08442381 -0.008216574
0.021769805 0.09351892 0.079250425 -0.049820594 -0.040031664 0.11688128 -0.12594911 0.0625153
-0.098201275 -0.07170972 0.016962275 -0.08909223 0.009669597 -0.023396656 0.06745535 0.08225742
0.061388478 -0.027707111 0.069453016 -0.06605604 0.10206784 -0.15343708 -0.021212364 0.037599664
00000000: d7a9 22be 616b fbbd 30d9 0cbe 4c7a fa3d
00000010: aaf1 8abc 6829 4ebd 77d6 c23c 4871 bd3b
00000020: 06d7 a6bd 8549 3fbb eba0 6ebc efdd 463b
00000030: 40e8 73bd ada7 9d3d 0084 7339 9f37 b4bd
00000040: b578 4a3d 7487 033d 004a 3fbd 7549 8f3b
00000050: 40ac 72bc db67 80bd 311e 8f3d c776 913d
00000060: 2a89 a33d 3e23 943c 7aea a1bd 0e03 2cbc
00000070: 65cf 11be adb8 e53c 96a7 1c3d 9097 01bd
00000080: b933 723d 1b29 533c 47e6 1ebd ae96 b83d
00000090: 60a4 fb3c 0a7a cebd 7764 a0bc 5523 9c3d
000000a0: 0709 a9bd 6914 823d 24f9 0c3d 904f ebbd
000000b0: 6ba5 19be cdef 14bd 0ffd 06bd 2739 953c
000000c0: 648c d63d 1ed5 253d 1a01 c6bd 5fba c73d
000000d0: fc25 8c3d 826e 96bd 9624 a0bd 948e 513d
000000e0: b447 c4bd 7fd7 913d 1ece 5dbc 018f 29bb
000000f0: 9021 033d 0237 1c3d c890 ab3d 7a81 2f3d
00000100: 582b d73d 6e09 c53d ed7a 313e e0d8 f33c
00000110: 9ec6 623e 9a06 9c3d 6a0b 513e 65cd 0e3e
00000120: 021e 263d aee3 8a3e 9b23 55bd dab1 4c3e
00000130: 7a3f 193e 2e67 ef3d fc46 56bd e013 ec3d
00000140: dc75 823d f4c9 7f3e cc6b 8b3e 3f79 a03d
00000150: b077 ec3d 7530 3d3e 5b39 8d3e eaca 87bd
00000160: 30a7 703e e541 f93d 94b0 7f3e 2289 473e
00000170: 5093 b83d 5bb7 7bbd 4e51 8f3e b9e9 b63c
00000180: e4cb 81bd e010 033e 999e 8fbd b447 a63d
00000190: 8047 c9ba b533 0b3e ca7d 863e 67bc 3a3e
000001a0: 42de b53d c76b 733e ac87 b63d 2163 b93d
000001b0: b6b1 4c3d e07c e23d 1b0a 743e 95e4 103e
000001c0: 073b c13c 8141 183e 1014 483e 7cf7 ff3c
000001d0: 8865 923d dd9a 273e 8c9c c73d cb16 b63c
000001e0: e5bd 4abd 9aea 883e c2be da3d 32c0 943d
000001f0: 8907 5bbd 7f13 3e3e b307 d53d 03d5 af3e
00000200: f083 323d 002e be39 3866 70bd 48f2 553d
00000210: e07d 1ebc 68a8 433d 7055 613d 3ecc 92bd
00000220: b2da c0bd 205d abbc b8df f03c f8a5 483d
00000230: 32ed f2bd 1452 86bd 9a73 f7bd ac33 dabd
00000240: 9067 943d 1cdb ae3d 2492 96bd 085c 4ebd
00000250: a823 2dbd c849 993c f6eb c23d 1820 f2bd
00000260: bca2 57bd 38a3 cbbc 8068 9abc c873 fcbc
00000270: 3c4a 72bd a88e 733d d09b f33c 24ea 33bd
00000280: 3c8b 21bd a4c0 7fbd 8c3f e73d b28b e03d
00000290: 3c31 2e3d 008a 0abc 9a81 d1bd 2093 bc3c
000002a0: c01b 703b d67f ff3d 9e9d aebd 8ced 65bd
000002b0: bcd2 98bd 60da 9fbd 0425 bbbd c03e 8dbd
000002c0: 70e6 323d f804 e3bc f857 2f3d c46b 4bbd
000002d0: 88b7 693d ba95 ab3d 74e7 aabd d0e5 97bd
000002e0: b654 ca3d 14b6 28bd d0c2 a6bd d8f4 69bd
000002f0: 481e 46bd f018 b1bd a4fa 253d 4a51 ad3d
00000300: febc 06be b590 febc eb7e d63d 868b 8a3d
00000310: 4c23 38bd aaa3 9ebd 6481 9a3d 57d1 1f3c
00000320: 2414 fbbd 222e c0bc 6269 9c3d 99e6 b13d
00000330: a416 cb3d a9ca a3bd f0fe d83d 9ba2 f8bd
00000340: 8522 29bc fb7d eabd f078 4abd a8ed 8c3d
00000350: 806d c3ba 1434 863d f161 ebbd 091c d8bc
00000360: 3696 f53c 4ca2 c2bd 6db9 ef3c 1a98 133d
00000370: 7973 f8bc 57a8 a43d 1c1f 7dbc 1ad6 cb3d
00000380: e180 4ebd 82d9 bc3d a1f4 9d3d 5ce8 72bd
00000390: 6489 c43d a5cb e4bd 64e6 acbd cf9e 06bc
000003a0: 9756 b23c d986 bf3d 0c4e a23d ae10 4cbd
000003b0: 3ef8 23bd 745f ef3d cef8 00be 0608 803d
000003c0: c01d c9bd 8cdc 92bd 78f4 8a3c fd75 b6bd
000003d0: 3b6d 1e3c 58aa bfbc 0826 8a3d 9476 a83d
000003e0: 7c72 7b3d 06fa e2bc 623d 8e3d 6448 87bd
000003f0: f208 d13d 9c1e 1dbe 8dc5 adbc 1b02 1a3d

bias f4 [64]
0.005359527 0.21007548 -0.047654092 -0.036139216 -0.048136886 -0.100159615 -0.08346765 0.14890267
0.13855787 0.18450078 0.2371453 0.24206336 0.07283451 0.22896601 0.04412239 0.12959597
0.043048967 0.04393903 -0.013488507 -0.13205849 0.026853334 0.09133322 0.19332796 0.05337915
0.09773598 0.06648917 0.030070357 -0.07061412 -0.008109075 0.09207794 0.15082587 -0.07625357
-0.08264077 0.021152923 -0.11668513 0.1333398 -0.06639982 0.06462201 -0.0246488 -0.06487639
0.17003945 -0.0362214 0.31326565 -0.008396238 0.09556023 0.0875614 0.07147224 0.04734913
-0.0977113 0.11628785 -0.0885904 -0.06462168 -0.044196412 0.1944661 0.21311854 0.030641735
0.11410179 0.018627254 0.07418725 0.045410257 0.18325333 0.13548093 0.19252715 -0.033467785
00000000: f99e af3b 071e 573e f030 43bd b706 14bd
00000010: 2f2b 45bd 7c20 cdbd 16f1 aabd f179 183e
00000020: 1de2 0d3e c6ed 3c3e 38d6 723e 75df 773e
00000030: 422a 953d 1176 6a3e aeb9 343d ceb4 043e
00000040: 1d54 303d 6af9 333d e6fe 5cbc 573a 07be
00000050: 86fb db3c e90c bb3d c4f7 453e 18a4 5a3d
00000060: cd29 c83d 792b 883d 1c56 f63c 239e 90bd
00000070: eddb 04bc 5c93 bc3d 1972 1a3e d52a 9cbd
00000080: 903f a9bd e548 ad3c 9df8 eebd 3b8a 083e
00000090: a1fc 87bd 8b58 843d 48ec c9bc eadd 84bd
000000a0: d21e 2e3e e45c 14bd 5b64 a03e 6090 09bc
000000b0: 15b5 c33d 6453 b33d 0a60 923d 29f1 413d
000000c0: dd1c c8bd 5328 ee3d e26e b5bd 5f58 84bd
000000d0: 4c07 35bd 1f22 473e bf3b 5a3e 6004 fb3c
000000e0: 33ae e93d 2f98 983c 7cef 973d 1b00 3a3d
000000f0: c3a6 3b3e 83bb 0a3e d625 453e 8415 09bd

weight f4 [2, 64]
-0.069858864 -0.035147842 -0.04007724 -0.015533945 -0.005617127 0.11708492 0.11170575 -0.0375079
-0.18367867 0.004146154 -0.04718059 -0.32109758 0.06739902 -0.084491126 -0.2975865 -0.20904614
0.09340654 -0.027702564 -0.066269085 0.1038914 -0.091878384 -0.2437916 -0.08054238 -0.02937767
-0.0012660217 -0.19574434 -0.2075161 0.07775495 -0.047228348 -0.14908203 -0.1064498 0.05545921
-0.057972908 0.1150983 -0.10587374 -0.14556317 -0.0052206283 0.09235994 -0.04580541 0.07740828
-0.13290979 -0.02918367 -0.4020784 -0.07642852 -0.14415443 0.12129439 0.03838649 0.053994056
-0.008927288 -0.07882176 -0.07312504 0.11902228 0.11691325 0.021257246 -0.31036922 0.06620591
0.10224923 -0.20674911 0.018985892 0.115838476 -0.05855406 -0.073660046 -0.066980585 -0.07163206
0.04512448 -0.16498189 -0.045412198 0.093405865 0.07204015 -0.078907564 -0.11448 -0.22014368
-0.32741803 -0.26911157 -0.27420995 -0.3842174 -0.0007788728 -0.22435482 -0.19559397 -0.09980151
-0.06787135 -0.04523313 0.12916204 0.054584812 -0.07044311 -0.25870824 -0.18004663 -0.08835675
-0.14330354 -0.1890367 -0.22940953 0.07399828 -0.049084228 -0.126238 -0.22470008 0.09235926
0.07030429 0.03718867 0.12412186 -0.24719255 0.012391176 -0.0018036931 -0.039542645 0.022953806
-0.1378403 0.09641598 -0.36636728 -0.0151941925 -0.25562388 0.024929678 0.048718464 -0.021213816
0.019008353 -0.19633447 -0.06945413 0.042550974 0.11868285 -0.23178361 -0.21535711 -0.009034653
-0.067727506 -0.19679062 0.0003116205 0.06909714 -0.17993177 -0.21222992 -0.21305302 0.108433746
00000000: 2a12 8fbd 2ff7 0fbd 0828 24bd 1682 7ebc
00000010: e00f b8bb 38ca ef3d fcc5 e43d e2a1 19bd
00000020: 4316 3cbe 76dc 873b 6f40 41bd e766 a4be
00000030: 7f08 8a3d af09 adbd 425d 98be 3110 56be
00000040: ee4b bf3d 7df0 e2bc 16b8 87bd 04c5 d43d
00000050: bc2a bcbd 81a4 79be 67f3 a4bd 70a9 f0bc
00000060: a4f0 a5ba 3471 48be 1a7f 54be fd3d 9f3d
00000070: 8372 41bd f6a8 18be 5a02 dabd 3229 633d
00000080: 0075 6dbd a8b8 eb3d 55d4 d8bd 830e 15be
00000090: ce11 abbb 3527 bd3d 749e 3bbd 3b88 9e3d
000000a0: 8119 08be 9812 efbc 38dd cdbe 8e86 9cbd
000000b0: 389d 13be 3169 f83d 273b 1d3d df28 5d3d
000000c0: c343 12bc 4e6d a1bd 95c2 95bd f4c1 f33d
000000d0: 3770 ef3d ad23 ae3c b7e8 9ebe f796 873d
000000e0: 0b68 d13d 0ab6 53be 4d88 9b3c b93c ed3d
000000f0: 62d6 6fbd 14db 96bd 1e2d 89bd d4b3 92bd
00000100: 72d4 383d 03f1 28be 2402 3abd 934b bf3d
00000110: c989 933d 4a9a a1bd 7e74 eabd 586d 61be
00000120: 56a3 a7be fec8 89be 3f65 8cbe 25b8 c4be
00000130: 452d 4cba 45bd 65be c949 48be bc64 ccbd
00000140: 2200 8bbd 6046 39bd 0e43 043e 5394 5f3d
00000150: 7a44 90bd 6875 84be 255e 38be 62f4 b4bd
00000160: 2abe 12be d692 41be 55ea 6abe 698c 973d
00000170: 8b0c 49bd 8944 01be c717 66be da26 bd3d
00000180: b2fb 8f3d 2653 183d 9a33 fe3d 0b20 7dbe
00000190: 5c04 4b3c e669 ecba 78f7 21bd 9f09 bc3c
000001a0: 0226 0dbe be75 c53d 7e94 bbbe 10f1 78bc
000001b0: 22e1 82be 5339 cc3c 038d 473d 99c8 adbc
000001c0: 68b7 9b3c e70b 49be f83d 8ebd ee49 2e3d
000001d0: fe0f f33d af58 6dbe 9386 5cbe 1506 14bc
000001e0: b8b4 8abd 7b83 49be ff60 a339 cd82 8d3d
000001f0: 0940 38be cd52 59be 922a 5abe 8312 de3d

bias f4 [2]
-0.02343933 -0.22395186
00000000: d603 c0bc a353 65be
