checkpoints/actor17.pt (torch, 21960 bytes, 6 tensors)

weight f4 [64, 4]
00000000: 34d6 e73b 4f76 b2bc 5274 04bc a62f 043f
00000010: 1062 91bd c14b 14bf 4b5f 40be ff50 8cbc
00000020: acb9 fd3e f373 63be 3ef4 673e 937d 46be
00000030: bc03 05be aa35 afbe 701a 2d3e becb 92be
00000040: 944c 22be 0cb1 8c3c cdb9 9d3e 9686 8d3e
00000050: 7897 96bd 44d2 c23e 8c29 163e 4e72 a33e
00000060: 9f2c 7b3e dae4 cebe 75ea 393e 3aa4 903d
00000070: 0434 c2be 37db a9bc dfc5 1d3e e574 b13d
00000080: d477 c9be 79e7 bebe 59f7 933e b08e 5b3e
00000090: 91ac f8be 37e5 9ebe 6274 97be eed8 2e3e
000000a0: 4166 1c3e 44e4 40bd 96b4 9bbd d97d 36bd
000000b0: 9465 de3d 6695 b9be c8b7 ab3e 16a5 debc
000000c0: 05dd f3be c4fe 76be 6274 eabc 43e7 b3bd
000000d0: 20e2 b0bd 6899 78be 978e 823c 185e b8bd
000000e0: 1a63 d23e f48b 233e a855 f5bd c031 68bc
000000f0: 61ec 97be 0f02 03bf 774e 1e3f 3621 743d
00000100: cb1a 6fbe 689b ea3e c517 04bf d950 10be
00000110: 30d8 19bf 9200 3e3e e134 52be 0107 9d3e
00000120: 8242 833d 3dfc 7fbd 627f a43e 28ac df3d
00000130: a7e7 f1be 3150 9a3d 3cf6 f03d 9477 da3e
00000140: b0c2 d03d 60a4 5e3e 00ea 443b 88af 4a3e
00000150: 0519 4b3e 91cf 17be a5dc a9be e25c 20be
00000160: 7895 83be 8d25 23bf 4086 163f f5d4 04bd
00000170: c605 7c3e 1b8d 9a3d a4fc 193f e4e0 dabd
00000180: e1ce 0ebd 7cee ebbe e89a 1f3f d6c7 bb3d
00000190: d122 86be ffa5 0bbf e8f8 7bbe 47d6 0f3d
000001a0: 858d 16bf dfe9 babd df8a 543e cc0a 153f
000001b0: 2be9 903e 6b20 a2be aa10 82be 9312 e53d
000001c0: 5c63 1abf 6728 99bc f608 053f d8fb c23e
000001d0: 094e a6be ce43 113c 7ca7 55bc 1ede 79be
000001e0: 907a 0ebf 6bb2 d9bd fef0 083f 08bd 633e
000001f0: 84a0 903e 6440 a3be efb1 243f 1681 17be
00000200: 1335 debd c646 733e 1a33 14be 8359 a6bd
00000210: 4010 0fbf 0cf4 fdbd 70bf c8bd 4081 913e
00000220: 8fcc f93d 6200 e1bd ddea 4a3e 8c28 f6bc
00000230: 90aa c43e aa36 fdbe ecbc 53be a88b cabe
00000240: dc46 013e 20c5 10be 0c1a 44be 00da 44bc
00000250: e702 b43c e89b 973e 61ab 5c3e e0d7 143f
00000260: 1bc9 62be 43c0 8abd 9809 093e 01a8 d13e
00000270: 6ba9 40be cdb6 dbbe cc90 cd3e 6abb b83e
00000280: 746e 003f 4787 acbe e899 713e 6364 dfbe
00000290: 7559 98bc 25d5 17bf 36c7 16be c320 ba3e
000002a0: e8d4 07bf 0d3d 9fbd f4b0 873e 21e1 043e
000002b0: 2f68 e33e 3b34 cd3e 4b65 98be 2acb 8bbc
000002c0: caee 883e fe2a ad3e 0e38 65be a7a3 223f
000002d0: cdfb bfbe d4a9 743d 1f77 ee3d 5d53 aabe
000002e0: e694 b1be 2d98 c2be b0c2 a3be 6b54 e93e
000002f0: 3fbc 503e c045 243e 393a b33c 2ab7 f03e
00000300: 937a d33d ae7e b33d ddf9 ccba 4672 cbbe
00000310: 05a6 493e c993 183e 7250 0a3f feb9 24be
00000320: 8ed8 c83e ecfc 66bd 386d 113f b66d 343e
00000330: fc4a b43d e680 e03e bed5 113e 206a 353d
00000340: 72e5 62be 0203 b7be 38fd 3cbb c8d1 56be
00000350: 4853 1fbe eda4 76be b8f4 08be 372a 713e
00000360: ba4a c03e e08a b13c 3c04 78be f00f 353d
00000370: 14d2 4c3d 5e60 183e 2e18 fa3e 6b04 163f
00000380: 3a38 953e a1b6 ff3e 78a2 303c 307c c1be
00000390: 3b35 04bf a17a 28bf 903a 273e 8148 7dbd
000003a0: e9bc 33be 7254 dcbe 4c84 843c 8207 f73e
000003b0: 8ec8 bbbd aba1 a5be c221 243f a00a 17be
000003c0: 3b88 603e 62cf 1abe 26db 883d cd40 8fbe
000003d0: 483f 2ebe ae7b b43d 41c5 013f 7638 e23e
000003e0: f33f 783e 8aee aabe b44f 52be 18b9 973e
000003f0: b22f 1e3e 6037 f9be 4926 f83e 4a5a 213e
0.0070750955 -0.02178493 -0.008084374 0.51635206 -0.07098782 -0.5792809 -0.18786351 -0.017128466
0.4955572 -0.222122 0.22651765 -0.1938384 -0.12989706 -0.3422063 0.16904616 -0.28671068
-0.15849525 0.017174266 0.30805817 0.27641743 -0.07353109 0.38051045 0.14664286 0.31923145
0.2452874 -0.40408975 0.18155845 0.07062574 -0.3793031 -0.020734413 0.15407513 0.08664874
-0.39349234 -0.37285975 0.2889965 0.2144115 -0.48569158 -0.31034252 -0.2958098 0.1707494
0.15273382 -0.04709269 -0.076028034 -0.04455361 0.10859218 -0.36246794 0.3353865 -0.027178328
-0.47629562 -0.24120623 -0.028619949 -0.08784344 -0.0863688 -0.2427727 0.015937133 -0.09002322
0.41091233 0.15971357 -0.11979228 -0.014172018 -0.2967253 -0.51175016 0.6183848 0.059601985
-0.23350064 0.4582169 -0.5159877 -0.14093341 -0.600955 0.18554905 -0.20527984 0.30669406
0.0640917 -0.062496413 0.32128435 0.10921508 -0.4724705 0.075348265 0.117657155 0.42669356
0.10193384 0.21742392 0.0030046701 0.19793522 0.19833763 -0.14825274 -0.3317615 -0.15660432
-0.25699973 -0.6372917 0.587986 -0.032429654 0.24611577 0.07546445 0.60151124 -0.10687426
-0.034865264 -0.46080387 0.62345743 0.09168975 -0.26198438 -0.54550165 -0.24606669 0.03511646
-0.5880969 -0.091266386 0.207561 0.582196 0.28302893 -0.31665358 -0.2540334 0.111851834
-0.6030786 -0.018696023 0.519668 0.38082767 -0.3248141 0.008866264 -0.01304042 -0.24401137
-0.55655766 -0.10629734 0.53492725 0.22240078 0.28247464 -0.31885064 0.64334005 -0.14795336
-0.10849967 0.23757467 -0.14472619 -0.08122542 -0.5588417 -0.12400064 -0.09802139 0.28418922
0.121972196 -0.10986401 0.19816156 -0.030048631 0.3841138 -0.49455768 -0.20677537 -0.39559674
0.12624687 -0.14137697 -0.19150561 -0.012014866 0.02197404 0.29611135 0.21549751 0.581419
-0.22147028 -0.06774952 0.13382566 0.4094849 -0.18814628 -0.42912903 0.40149534 0.36080486
0.5016854 -0.33696958 0.23593867 -0.43631276 -0.018597344 -0.5930961 -0.1472443 0.3635312
-0.53059244 -0.077753164 0.26502192 0.12976505 0.44415423 0.4007891 -0.2976478 -0.01706465
0.26744682 0.33821863 -0.22384664 0.63530964 -0.37496796 0.059732273 0.11643814 -0.33266726
-0.34683913 -0.38006726 -0.31984472 0.45572218 0.2038431 0.16042233 0.021878349 0.47014743
0.103261136 0.087643966 -0.001563843 -0.3973562 0.19692238 0.14900126 0.54029 -0.16086575
0.39227718 -0.05639355 0.5680728 0.17619976 0.08803365 0.43848342 0.14241692 0.04429066
-0.22157839 -0.35744482 -0.0028837454 -0.20978463 -0.15559113 -0.24086352 -0.13374603 0.2355126
0.37557012 0.021672666 -0.24220365 0.044204652 0.050005034 0.14880511 0.48846573 0.5860049
0.2914446 0.49944022 0.010780923 -0.3779006 -0.51643723 -0.65812117 0.16330934 -0.061836723
-0.17552532 -0.43033177 0.016176365 0.48247916 -0.09169112 -0.32349905 0.6411401 -0.14750147
0.21926968 -0.15118173 0.06682424 -0.27979127 -0.17016327 0.088126525 0.5069161 0.441837
0.24243145 -0.33385116 -0.20538217 0.29633403 0.15447882 -0.4867506 0.4846671 0.15757099

bias f4 [64]
00000000: 0466 953e 2606 8f3c e149 c43e f440 9fbe
00000010: 9682 db3e 502a e3be 32c0 183f 8cb8 223f
00000020: d832 9fbe a314 03be 9c4e 08bd 9f7c a03e
00000030: c642 f03e 4def 0e3f dc48 ecbe 0ae9 15be
00000040: 1613 af3c 80c4 2d3f 6ab0 8d3e 2de8 513d
00000050: 0c8e c9be 2e6e 0e3f 888c 97be da63 a43e
00000060: 97d6 f43e a1c5 57be a133 8fbd ee63 673d
00000070: 202f 0c3f c4bb c7be 6b88 34be 0183 463f
00000080: bfac 2dbe fbb4 6abe 649e 5dbe a870 eabe
00000090: 48c6 b5be 2e1d 9abe f4fc fd3e 8c51 6c3e
000000a0: c61a b7bd 2121 003f 9c5c 0e3f 7785 b5be
000000b0: 45fd 30bd 34b7 83be 31ae 53be fbe4 193f
000000c0: cb32 babe 8a96 0f3f beb7 173f 09a1 7fbe
000000d0: 7f3c 99be 8fa2 6bbe 2c18 75be d876 ea3d
000000e0: e816 cbbe 1669 093f 5eed 88be dc42 583f
000000f0: 010f 39be e03f 083f ed47 de3e 0550 dd3e
0.29179394 0.017458986 0.38337615 -0.31104243 0.42873067 -0.4436822 0.59668267 0.63562846
-0.31093478 -0.12800841 -0.033278093 0.31345078 0.46925944 0.55833894 -0.46149337 -0.14639679
0.021371406 0.6787796 0.27673656 0.05124681 -0.39366186 0.5563687 -0.29599404 0.3210743
0.4781997 -0.21071483 -0.06992269 0.056491785 0.5475941 -0.3901044 -0.17630164 0.77543646
-0.16960429 -0.22920601 -0.21642452 -0.45789075 -0.3550284 -0.30100387 0.4960705 0.23077983
-0.089406535 0.5005055 0.5561006 -0.35453388 -0.043210287 -0.2572571 -0.20671917 0.6011502
-0.36366877 0.5608908 0.59264743 -0.24963774 -0.29928967 -0.2301123 -0.23935002 0.11448449
-0.39665914 0.53675973 -0.26743597 0.8447702 -0.1807213 0.53222466 0.4341425 0.43225113

weight f4 [64, 64]
00000000: b68a 1dbe a057 ebbd 1af9 02be 4c7a fa3d
00000010: f607 04bc 6829 4ebd efa2 283d 2c48 8c3c
00000020: dc13 a7bd 1b08 74bb eba0 6ebc ef92 993c
00000030: 4894 3cbd 01b1 b93d 0084 7339 d457 b4bd
00000040: b17a 4a3d 5efa 273d 683e eabc bc41 113c
00000050: 40ac 72bc 90b0 5fbd 7ff7 8d3d ddc0 a03d
00000060: acb0 d53d 629b 8f3c 755b 9fbd 5f1a 883c
00000070: 2053 0bbe adb8 e53c b63a 1b3d ec26 a4bc
00000080: b933 723d 4aba 483c 47e6 1ebd ae96 b83d
00000090: 60a4 fb3c e6b5 cebd 9725 a53b db0d a43d
000000a0: 0709 a9bd 473c 8b3d bcbc 323d 904f ebbd
000000b0: cd15 13be cdef 14bd d41a 07bd 60ce d33c
000000c0: 648c d63d 6e60 473d ff08 a8bd 5fba c73d
000000d0: fc25 8c3d c675 9dbd 9624 a0bd d7f1 633d
000000e0: b447 c4bd 3756 bc3d 5543 5ebc 62cb 1f3c
000000f0: 9021 033d 462d 383d 0580 d13d 89c6 8e3d
00000100: 4bd0 dc3d 811a c93d c66c 473e e0d8 f33c
00000110: 7234 673e 9a06 9c3d d8bb 6c3e 3ad4 163e
00000120: 1f86 283d e653 8b3e 9b23 55bd 5e46 523e
00000130: d380 233e f6a8 043e fc46 56bd 4f9d ed3d
00000140: 5986 823d 0ab4 823e d116 8f3e d952 a43d
00000150: b077 ec3d 394a 513e 518f 8d3e e052 45bd
00000160: 2ea6 863e aecb fa3d 5968 803e 24ee 4a3e
00000170: 42e2 bf3d 5bb7 7bbd 18ae 8f3e ac7c 3b3d
00000180: e4cb 81bd 3cc2 033e 999e 8fbd b447 a63d
00000190: 8047 c9ba 4700 0c3e 062d 943e e706 3d3e
000001a0: 42de b53d 922e 763e 2107 c13d 2163 b93d
000001b0: 4604 533d e07c e23d 5ab3 743e 0148 153e
000001c0: 073b c13c 9b79 2b3e 8359 633e 7cf7 ff3c
000001d0: 8865 923d de57 283e 8c9c c73d 185e c83c
000001e0: e5bd 4abd e032 973e c806 dc3d b77c c53d
000001f0: 8907 5bbd 17eb 413e 4d7a 083e b93a bd3e
00000200: f083 323d 002e be39 3866 70bd 48f2 553d
00000210: e07d 1ebc 68a8 433d 7055 613d 3ecc 92bd
00000220: b2da c0bd 205d abbc b8df f03c f8a5 483d
00000230: 32ed f2bd 1452 86bd 9a73 f7bd ac33 dabd
00000240: 9067 943d 1cdb ae3d 2492 96bd 085c 4ebd
00000250: a823 2dbd c849 993c f6eb c23d 1820 f2bd
00000260: bca2 57bd 38a3 cbbc 8068 9abc c873 fcbc
00000270: 3c4a 72bd a88e 733d d09b f33c 24ea 33bd
00000280: 3c8b 21bd a4c0 7fbd 8c3f e73d b28b e03d
00000290: 3c31 2e3d 008a 0abc 9a81 d1bd 2093 bc3c
000002a0: c01b 703b d67f ff3d 9e9d aebd 8ced 65bd
000002b0: bcd2 98bd 60da 9fbd 0425 bbbd c03e 8dbd
000002c0: 70e6 323d f804 e3bc f857 2f3d c46b 4bbd
000002d0: 88b7 693d ba95 ab3d 74e7 aabd d0e5 97bd
000002e0: b654 ca3d 14b6 28bd d0c2 a6bd d8f4 69bd
000002f0: 481e 46bd f018 b1bd a4fa 253d 4a51 ad3d
00000300: febc 06be b590 febc eb7e d63d 868b 8a3d
00000310: 4c23 38bd aaa3 9ebd 6481 9a3d 57d1 1f3c
00000320: 2414 fbbd 222e c0bc 6269 9c3d 99e6 b13d
00000330: a416 cb3d a9ca a3bd f0fe d83d 9ba2 f8bd
00000340: 8522 29bc fb7d eabd f078 4abd a8ed 8c3d
00000350: 806d c3ba 1434 863d f161 ebbd 091c d8bc
00000360: 3696 f53c 4ca2 c2bd 6db9 ef3c 1a98 133d
00000370: 7973 f8bc 57a8 a43d 1c1f 7dbc 1ad6 cb3d
00000380: e180 4ebd 82d9 bc3d a1f4 9d3d 5ce8 72bd
00000390: 6489 c43d a5cb e4bd 64e6 acbd cf9e 06bc
000003a0: 9756 b23c d986 bf3d 0c4e a23d ae10 4cbd
000003b0: 3ef8 23bd 745f ef3d cef8 00be 0608 803d
000003c0: c01d c9bd 8cdc 92bd 78f4 8a3c fd75 b6bd
000003d0: 3b6d 1e3c 58aa bfbc 0826 8a3d 9476 a83d
000003e0: 7c72 7b3d 06fa e2bc 623d 8e3d 6448 87bd
000003f0: f208 d13d 9c1e 1dbe 8dc5 adbc 1b02 1a3d
-0.15384945 -0.114913225 -0.12790337 0.122303575 -0.008058539 -0.050332457 0.04117101 0.017124258
-0.08158085 -0.0037236277 -0.014564733 0.018746821 -0.04603985 0.09066964 0.0002322346 -0.088058144
0.049433414 0.041010253 -0.02859421 0.00886577 -0.014811575 -0.054611742 0.06931972 0.07849286
0.10434088 0.017530147 -0.07781116 0.016614137 -0.13605928 0.028042162 0.037897788 -0.02003809
0.059131358 0.012251446 -0.03879383 0.09013115 0.030718029 -0.10093288 0.0050398814 0.08010455
-0.08253675 0.06798606 0.043637022 -0.11489785 -0.14363785 -0.036361504 -0.03298457 0.025855243
0.10475996 0.048675947 -0.08204841 0.09752344 0.068431824 -0.07688479 -0.07819478 0.05565056
-0.09583989 0.09196132 -0.013565858 0.00975308 0.03201443 0.04496505 0.10229496 0.06971461
0.10781916 0.09819508 0.19475088 0.0297665 0.225786 0.07618447 0.23118532 0.14729396
0.041143533 0.27212447 -0.05203591 0.20534655 0.15967111 0.12955078 -0.05231379 0.1160227
0.06373281 0.25527984 0.27947095 0.080236144 0.11546266 0.2043847 0.27648404 -0.04817474
0.2629866 0.1224588 0.2507961 0.19817406 0.09369327 -0.06145416 0.2806251 0.045773193
-0.06337717 0.12867063 -0.07012672 0.08119145 -0.0015356392 0.13671981 0.289406 0.18459664
0.08880283 0.24041203 0.09425188 0.090521105 0.051517747 0.11058974 0.23896542 0.14578249
0.023587717 0.16745608 0.22202115 0.03124594 0.07148272 0.16439769 0.09746656 0.02445893
-0.049497504 0.29531002 0.10743481 0.09642928 -0.053473983 0.18937336 0.13327904 0.36958864
0.043582857 0.00036273897 -0.058691233 0.05223301 -0.009673566 0.047768027 0.05501312 -0.07167862
-0.09416713 -0.020918429 0.029403552 0.048986405 -0.11861648 -0.06558624 -0.12082596 -0.10654387
0.072463155 0.085378855 -0.07352093 -0.050380737 -0.042270333 0.01871194 0.09517662 -0.11822528
-0.05264543 -0.024858102 -0.018848658 -0.030816928 -0.059152827 0.05946222 0.029737383 -0.043924466
-0.039439425 -0.062439576 0.112914175 0.10964145 0.042527422 -0.008455753 -0.10229798 0.023019373
0.0036637634 0.12475555 -0.08526157 -0.056134745 -0.074620694 -0.078053236 -0.091379195 -0.06896734
0.043676794 -0.02771233 0.042808503 -0.04966332 0.057059795 0.083781675 -0.083449274 -0.0741688
0.098794386 -0.04118927 -0.08142626 -0.057118267 -0.048368722 -0.086473346 0.040522233 0.0846277
-0.13158032 -0.031074861 0.104734264 0.06764893 -0.044955537 -0.0774606 0.075442106 0.0097545
-0.12259701 -0.023459498 0.07637288 0.08686561 0.09916428 -0.07997639 0.105955005 -0.121403895
-0.0103231715 -0.1144981 -0.04943174 0.06881267 -0.0014909953 0.06552902 -0.1149329 -0.026380556
0.029978853 -0.09503612 0.029263223 0.036033727 -0.0303285 0.08039921 -0.015449312 0.09952946
-0.050415877 0.09221174 0.07712675 -0.059303626 0.09596518 -0.111716546 -0.08442381 -0.008216574
0.021769805 0.09351892 0.079250425 -0.049820594 -0.040031664 0.11688128 -0.12594911 0.0625153
-0.098201275 -0.07170972 0.016962275 -0.08909223 0.009669597 -0.023396656 0.06745535 0.08225742
0.061388478 -0.027707111 0.069453016 -0.06605604 0.10206784 -0.15343708 -0.021212364 0.037599664

bias f4 [64]
00000000: 53d7 423c 2145 5d3e f030 43bd b706 14bd
00000010: 2f2b 45bd 7c20 cdbd 16f1 aabd a6e7 1c3e
00000020: 12dc 2d3e 4179 403e 9cf3 793e d9a2 893e
00000030: 6124 953d 3de7 6e3e bfdd 8d3d a267 0c3e
00000040: 1d54 303d 6af9 333d e6fe 5cbc 573a 07be
00000050: 86fb db3c 3012 ca3d bb31 4d3e 18a4 5a3d
00000060: 3b94 023e a913 913d 37fe 0c3d 239e 90bd
00000070: eddb 04bc b64a cb3d bcda 1e3e d52a 9cbd
00000080: 903f a9bd a4d1 ac3c 9df8 eebd bb6e 0c3e
00000090: a1fc 87bd 8b58 843d 48ec c9bc 27f3 84bd
000000a0: cf19 353e e45c 14bd 6684 af3e 6090 09bc
000000b0: f9a3 cb3d b304 b33d 0a60 923d 29f1 413d
000000c0: dd1c c8bd 7107 f83d e26e b5bd 5f58 84bd
000000d0: 4c07 35bd 8c73 4a3e 4776 763e 6004 fb3c
000000e0: 33ae e93d b30f bd3c 7cef 973d 1b00 3a3d
000000f0: 3f61 413e 881a 0f3e 16a1 493e 8415 09bd
0.011892158 0.21608402 -0.047654092 -0.036139216 -0.048136886 -0.100159615 -0.08346765 0.15322742
0.16978481 0.18796255 0.24409336 0.26882055 0.07282329 0.23330398 0.0692706 0.13711408
0.043048967 0.04393903 -0.013488507 -0.13205849 0.026853334 0.0986675 0.20038502 0.05337915
0.12751858 0.07083828 0.034422126 -0.07061412 -0.008109075 0.09926359 0.15513128 -0.07625357
-0.08264077 0.021096058 -0.11668513 0.13714115 -0.06639982 0.06462201 -0.0246488 -0.0649169
0.17685626 -0.0362214 0.342807 -0.008396238 0.09943385 0.08741131 0.07147224 0.04734913
-0.0977113 0.12110794 -0.0885904 -0.06462168 -0.044196412 0.1977064 0.24068557 0.030641735
0.11410179 0.023078775 0.07418725 0.045410257 0.18884753 0.13974965 0.19690356 -0.033467785

weight f4 [2, 64]
00000000: 8390 92bd 9e00 49bd 0828 24bd 1682 7ebc
00000010: e00f b8bb 38ca ef3d fcc5 e43d 19f1 51bd
00000020: 61d5 5fbe 44ca 2fbc a66b 9dbd c0c0 b4be
00000030: 1a08 8a3d fc59 c9bd 0a29 a9be 1521 68be
00000040: ee4b bf3d 7df0 e2bc 16b8 87bd 04c5 d43d
00000050: bc2a bcbd 39f6 8abe d2a5 cebd 70a9 f0bc
00000060: 840d 10bd 5af4 51be acba 62be fd3d 9f3d
00000070: 8372 41bd b475 28be 1f54 f5bd 3229 633d
00000080: 0075 6dbd 5fb8 eb3d 55d4 d8bd eed7 1ebe
00000090: ce11 abbb 3527 bd3d 749e 3bbd 3388 9e3d
000000a0: 7f06 17be 9812 efbc 15e2 debe 8e86 9cbd
000000b0: 8d2f 20be 7c66 f83d 273b 1d3d df28 5d3d
000000c0: c343 12bc f90f bdbd 95c2 95bd f4c1 f33d
000000d0: 3770 ef3d 53f2 343c 46c7 afbe f796 873d
000000e0: 0b68 d13d 18a7 60be 4d88 9b3c b93c ed3d
000000f0: cf13 96bd 4991 aebd 210f a3bd d4b3 92bd
00000100: 11a1 353d c4ce 2cbe 2402 3abd 934b bf3d
00000110: c989 933d 4a9a a1bd 7e74 eabd adc6 65be
00000120: 2e94 b8be cbe2 8bbe cb9e 92be c1c2 d1be
00000130: 6d9d 4cba a46f 6abe 2fbe 5fbe aebb d8bd
00000140: 2200 8bbd 6046 39bd 0e43 043e 5394 5f3d
00000150: 7a44 90bd ee8c 88be d25d 3ebe 62f4 b4bd
00000160: a66c 3dbe cccd 44be 92db 6ebe 698c 973d
00000170: 8b0c 49bd 3d3d 06be 696e 6abe da26 bd3d
00000180: b2fb 8f3d 6a51 183d 9a33 fe3d da23 80be
00000190: 5c04 4b3c e669 ecba 78f7 21bd 7cf7 bb3c
000001a0: 94b5 11be be75 c53d d977 cabe 10f1 78bc
000001b0: f7e2 84be 4c11 cc3c 038d 473d 99c8 adbc
000001c0: 68b7 9b3c 70ac 4dbe f83d 8ebd ee49 2e3d
000001d0: fe0f f33d 08a9 70be c192 76be 1506 14bc
000001e0: b8b4 8abd 27d4 4dbe ff60 a339 cd82 8d3d
000001f0: 0b11 3dbe bd37 5dbe 1784 5ebe 8312 de3d
-0.0715647 -0.049072854 -0.04007724 -0.015533945 -0.005617127 0.11708492 0.11170575 -0.05125532
-0.21858741 -0.010729376 -0.07686548 -0.35303307 0.067398265 -0.09831616 -0.33039123 -0.2266887
0.09340654 -0.027702564 -0.066269085 0.1038914 -0.091878384 -0.27140978 -0.100902215 -0.02937767
-0.03516914 -0.20503369 -0.22141522 0.07775495 -0.047228348 -0.1645115 -0.119789355 0.05545921
-0.057972908 0.11509775 -0.10587374 -0.15512058 -0.0052206283 0.09235994 -0.04580541 0.07740822
-0.14748572 -0.02918367 -0.43531862 -0.07642852 -0.15643139 0.12128922 0.03838649 0.053994056
-0.008927288 -0.09231562 -0.07312504 0.11902228 0.11691325 0.011044103 -0.3433172 0.06620591
0.10224923 -0.21938741 0.018985892 0.115838476 -0.07327997 -0.08523805 -0.0796187 -0.07163206
0.044343058 -0.1687575 -0.045412198 0.093405865 0.07204015 -0.078907564 -0.11448 -0.2243907
-0.36050552 -0.27321467 -0.28636774 -0.40968898 -0.00078054407 -0.2289415 -0.21849893 -0.10582672
-0.06787135 -0.04523313 0.12916204 0.054584812 -0.07044311 -0.2667002 -0.18590477 -0.08835675
-0.18498477 -0.1921913 -0.23325947 0.07399828 -0.049084228 -0.13109298 -0.2289368 0.09235926
0.07030429 0.037187018 0.12412186 -0.25027353 0.012391176 -0.0018036931 -0.039542645 0.022945158
-0.14229423 0.09641598 -0.39544562 -0.0151941925 -0.2595441 0.024910592 0.048718464 -0.021213816
0.019008353 -0.20085311 -0.06945413 0.042550974 0.11868285 -0.2350198 -0.2407942 -0.009034653
-0.067727506 -0.20100461 0.0003116205 0.06909714 -0.18463533 -0.21603294 -0.21730076 0.108433746

bias f4 [2]
00000000: daf1 dcbc 2a2d 67be
-0.026970793 -0.22575822
