checkpoints/actor11.pt (torch, 21960 bytes, 6 tensors)

weight f4 [64, 4]
0	0x3b9e251f	0.0048262025
1	0xbbb10305	-0.0054019713
2	0xbcc8d026	-0.024513315
3	0x3f000fca	0.5002409
4	0xbd950635	-0.072765745
5	0xbf10dae4	-0.56584
6	0xbe4e02aa	-0.20118204
7	0xbcf83c49	-0.030302184
8	0x3eea1ab0	0.45723486
9	0xbd741554	-0.059590653
10	0x3df31f52	0.11871208
11	0xbeb39921	-0.35077766
12	0xbe0503bc	-0.12989706
13	0xbeaf35aa	-0.3422063
14	0x3e2d1a70	0.16904616
15	0xbe92cbbe	-0.28671068
16	0xbe249e07	-0.16075908
17	0x3d08335b	0.0332521
18	0x3e9569c1	0.29182246
19	0x3e857174	0.2606312
20	0xbd969778	-0.07353109
21	0x3ec2d244	0.38051045
22	0x3e16298c	0.14664286
23	0x3ea3724e	0.31923145
24	0x3e8e6c41	0.27816966
25	0xbe677a3f	-0.22605227
26	0xbc3a913a	-0.011387164
27	0xbddc4f0f	-0.10757267
28	0xbec3ca33	-0.38240203
29	0x3af4c955	0.0018675724
30	0x3e06c341	0.13160421
31	0x3d83af0c	0.06429872
32	0xbec6e42c	-0.38845956
33	0xbeba330c	-0.3636707
34	0x3e8fcf2c	0.28087747
35	0x3e52007b	0.20507996
36	0xbef5d889	-0.48016766
37	0xbe98cb16	-0.29842442
38	0xbe9c7fca	-0.30566245
39	0x3e228277	0.15870081
40	0x3e1c6641	0.15273382
41	0xbd40e444	-0.04709269
42	0xbd9bb496	-0.076028034
43	0xbd367dd9	-0.04455361
44	0x3dd96a33	0.10615959
45	0xbeb063e9	-0.34451225
46	0x3ea28f9a	0.31750184
47	0xbd37d535	-0.044881064
48	0xbef55cec	-0.47922456
49	0xbe60ad75	-0.21941169
50	0xbd4e1a97	-0.050318327
51	0xbddff400	-0.10935211
52	0xbdb902c7	-0.09033733
53	0xbe59e89a	-0.21280137
54	0xbc64d701	-0.013967277
55	0xbdf501c6	-0.11963229
56	0x3ed2631a	0.41091233
57	0x3e238bf4	0.15971357
58	0xbdf555a8	-0.11979228
59	0xbc6831c0	-0.014172018
60	0xbe94e68c	-0.29082143
61	0xbeffa2b7	-0.4992883
62	0x3f1b9c26	0.6078514
63	0x3d40c5c2	0.047063597
64	0xbe6e8e6d	-0.23296519
65	0x3eea8b47	0.45809385
66	0xbf040098	-0.51563406
67	0xbe104484	-0.14088637
68	0xbf1a6c23	-0.60321254
69	0x3e4eb40e	0.20185873
70	0xbe62f657	-0.22164284
71	0x3e94d0fc	0.29065692
72	0x3d7bd322	0.06148065
73	0xbd3203fa	-0.043460824
74	0x3e9ac551	0.30228665
75	0x3db93e5b	0.090450965
76	0xbef300c5	-0.47461525
77	0x3dbaa490	0.09113419
78	0x3dd08d75	0.10183231
79	0x3ed28627	0.41117975
80	0x3dd0c2b0	0.10193384
81	0x3e5ea460	0.21742392
82	0x3b44ea00	0.0030046701
83	0x3e4aaf88	0.19793522
84	0x3e2cbac7	0.16868125
85	0x3da5628f	0.08075439
86	0xbefe24f9	-0.49637583
87	0xbec30fde	-0.38098043
88	0xbe8064c8	-0.2507689
89	0xbf203335	-0.62578136
90	0x3f13f11a	0.57789767
91	0xbd34f3be	-0.044177763
92	0x3e40d132	0.18829802
93	0x3e5103d5	0.20411618
94	0x3efbbe1f	0.49168488
95	0xbe715247	-0.23566543
96	0xbcaf62ef	-0.02140948
97	0xbea12c6f	-0.31479213
98	0x3ef2518e	0.47327846
99	0xbd5af4d9	-0.05345616
100	0xbe83381e	-0.25628752
101	0xbf08becb	-0.53416127
102	0xbe82e75f	-0.25567147
103	0x3cc2013a	0.023682225
104	0xbf170199	-0.5898681
105	0xbda05530	-0.07828748
106	0x3e476632	0.19472578
107	0x3f11c814	0.5694592
108	0x3e8f9d77	0.28049824
109	0xbe994556	-0.29935712
110	0xbe8ab882	-0.27093893
111	0x3dc20b37	0.09474795
112	0xbf1afeaa	-0.60544837
113	0xbab989f7	-0.0014155497
114	0x3f009db8	0.5024066
115	0x3eba462b	0.3638166
116	0xbea64e09	-0.3248141
117	0x3c1143ce	0.008866264
118	0xbc55a77c	-0.01304042
119	0xbe79de1e	-0.24401137
120	0xbf0d2d6c	-0.55147433
121	0xbdc6a327	-0.096990876
122	0x3f06cda4	0.5265753
123	0x3e5a1a46	0.21299085
124	0x3e9f0dd6	0.31065243
125	0xbdce0cc3	-0.10061028
126	0x3ee7925e	0.45228857
127	0xbebb5550	-0.36588526
128	0xbdde3513	-0.10849967
129	0x3e7346c6	0.23757467
130	0xbe14331a	-0.14472619
131	0xbda65983	-0.08122542
132	0xbf0dcd56	-0.5539144
133	0xbdeb929f	-0.11502575
134	0xbdd8e98e	-0.10591422
135	0x3e8cd5bf	0.27506825
136	0x3df9cc8f	0.121972196
137	0xbde10062	-0.10986401
138	0x3e4aeadd	0.19816156
139	0xbcf6288c	-0.030048631
140	0x3ec4aa90	0.3841138
141	0xbefd36aa	-0.49455768
142	0xbe53bcec	-0.20677537
143	0xbeca8ba8	-0.39559674
144	0x3e0146dc	0.12624687
145	0xbe10c520	-0.14137697
146	0xbe441a0c	-0.19150561
147	0xbc44da00	-0.012014866
148	0x3cf2b574	0.02962754
149	0x3e9ec236	0.31007546
150	0x3e4fec20	0.20304918
151	0x3f113003	0.56713885
152	0xbe55b493	-0.20869665
153	0x3d9b3629	0.075786896
154	0xbc62069f	-0.013795524
155	0x3e889f51	0.2668405
156	0xbe42826b	-0.18995063
157	0xbed4bf2e	-0.4155211
158	0x3ec697a7	0.38787577
159	0x3eb1e40b	0.34744295
160	0x3f006e74	0.5016854
161	0xbeac8747	-0.33696958
162	0x3e7199e8	0.23593867
163	0xbedf6463	-0.43631276
164	0xbca52592	-0.020159516
165	0xbf14a9fa	-0.58071864
166	0xbe23898f	-0.15970443
167	0x3eb3eb19	0.35140303
168	0xbf085d7c	-0.53267646
169	0xbd803ac9	-0.062612124
170	0x3e7fcc16	0.24980196
171	0x3deb48bb	0.114884816
172	0x3ee3682f	0.44415423
173	0x3ecd343b	0.4007891
174	0xbe98654b	-0.2976478
175	0xbc8bcb2a	-0.01706465
176	0x3e877cf4	0.2646252
177	0x3eb6958e	0.35660976
178	0xbe77de0f	-0.24205802
179	0x3f1dff90	0.6171808
180	0xbebffbcd	-0.37496796
181	0x3d74a9d4	0.059732273
182	0x3dee771f	0.11643814
183	0xbeaa535d	-0.33266726
184	0xbeaf54ee	-0.34244484
185	0xbebe0ab3	-0.37117538
186	0xbea7993c	-0.32734096
187	0x3ee4c4fa	0.4468153
188	0x3e4e4a1a	0.20145455
189	0x3e359e29	0.17736115
190	0x3b9d7e48	0.0048063137
191	0x3ee8322b	0.45350775
192	0x3dd37a93	0.103261136
193	0x3db37eae	0.087643966
194	0xbaccf9f0	-0.0015638452
195	0xbecb7246	-0.3973562
196	0x3e1a8dd4	0.15093166
197	0x3e9cf3ac	0.30654657
198	0x3ed92d74	0.4241749
199	0xbea21820	-0.3165903
200	0x3ed92e62	0.424182
201	0x3e1dcbb3	0.15409736
202	0x3eb62566	0.35575408
203	0xbd11ccef	-0.03559583
204	0x3db44afc	0.08803365
205	0x3ee080e6	0.43848342
206	0x3e11d5be	0.14241692
207	0x3d356a20	0.04429066
208	0xbe62e572	-0.22157839
209	0xbeb70302	-0.35744482
210	0xbb3cfd38	-0.0028837454
211	0xbe56d1c8	-0.20978463
212	0xbe19d853	-0.15023927
213	0xbe6c336e	-0.23066494
214	0xbe121f4a	-0.14269748
215	0x3e6689ec	0.2251355
216	0x3ec04aba	0.37557012
217	0x3cb18ae0	0.021672666
218	0xbe78043c	-0.24220365
219	0x3d350ff0	0.044204652
220	0x3d428e06	0.047498725
221	0x3e299689	0.16561331
222	0x3ef18449	0.47171238
223	0x3f11c86e	0.56946456
224	0x3e95383a	0.2914446
225	0x3effb6a1	0.49944022
226	0x3c30a276	0.010780921
227	0xbec17c30	-0.3779006
228	0xbf00d1fc	-0.5032041
229	0xbefc6ce3	-0.49301824
230	0xbace5352	-0.0015741384
231	0xbe6885d1	-0.22707297
232	0xbe2efc95	-0.1708854
233	0xbed75416	-0.4205634
234	0x3c0257db	0.007955517
235	0x3ef202f0	0.47267866
236	0xbd6cb5a9	-0.057790432
237	0xbded162d	-0.11576495
238	0x3edbb965	0.42914882
239	0xbeb68897	-0.35651085
240	0x3e60883b	0.21926968
241	0xbe1acf62	-0.15118173
242	0x3d88db26	0.06682424
243	0xbe8f40cd	-0.27979127
244	0xbe306fda	-0.17230168
245	0x3dd5b111	0.10434163
246	0x3efb4237	0.49073955
247	0x3eda0cdf	0.42587945
248	0x3e9349bc	0.28767192
249	0xbdf3e50f	-0.11908924
250	0xbed992ac	-0.42494714
251	0x3da52c27	0.08065062
252	0x3e270391	0.16309954
253	0xbeb70ec0	-0.3575344
254	0x3eb44ab0	0.35213232
255	0x3cf19674	0.029490687

bias f4 [64]
0	0x3e7a8adb	0.24467032
1	0xbcb04ba8	-0.02152045
2	0x3e64dc5b	0.22349684
3	0xbe9f40f4	-0.31104243
4	0x3ec469c4	0.38361943
5	0xbee32a50	-0.4436822
6	0x3eddc34a	0.43313056
7	0x3f124979	0.5714336
8	0xbea6d90d	-0.32587472
9	0xbe1c70bb	-0.15277378
10	0xbd084e9c	-0.033278093
11	0x3e85e28b	0.261494
12	0x3ed0d00c	0.40783727
13	0x3ef5d812	0.4801641
14	0xbeec48dc	-0.46149337
15	0xbe2fabc2	-0.17155364
16	0x3c2c82c0	0.01052922
17	0x3f21c6f0	0.6319418
18	0x3e63b4ff	0.22237013
19	0x3b8d6c32	0.0043158764
20	0xbec98e0c	-0.39366186
21	0x3ec167f9	0.37774637
22	0xbea1cc53	-0.316012
23	0x3e2eb683	0.1706181
24	0x3ea3fa04	0.32026684
25	0xbe6e2bcd	-0.23258896
26	0xbddc47f3	-0.10755911
27	0x3ac74956	0.0015204351
28	0x3eff10a0	0.4981737
29	0xbec7bbc4	-0.3901044
30	0xbe45a425	-0.19300897
31	0x3f19899e	0.5997561
32	0xbe2dacbf	-0.16960429
33	0xbe79f036	-0.2440804
34	0xbe5d9e64	-0.21642452
35	0xbeea70a8	-0.45789075
36	0xbeb5c648	-0.3550284
37	0xbea66537	-0.32499096
38	0x3ead5d04	0.33860028
39	0x3e43ab2a	0.19108263
40	0xbdb71ac6	-0.089406535
41	0x3eee8729	0.46587494
42	0x3f034123	0.51271266
43	0xbeb58577	-0.35453388
44	0xbdc4f2df	-0.096166365
45	0xbe83b734	-0.2572571
46	0xbe659152	-0.22418717
47	0x3f0dc08c	0.5537193
48	0xbeba32cb	-0.36366877
49	0x3ed2f6cd	0.4120392
50	0x3ed6e7b2	0.41973644
51	0xbe7fa109	-0.24963774
52	0xbe993c7f	-0.29928967
53	0xbe7da544	-0.24770075
54	0xbe75182c	-0.23935002
55	0x3d83468e	0.064099416
56	0xbecb16e8	-0.39665914
57	0x3ebb8611	0.36625722
58	0xbe9258f6	-0.28583497
59	0x3f2c54e3	0.67317027
60	0xbe390f01	-0.1807213
61	0x3ef8bb84	0.48580563
62	0x3e776144	0.24158198
63	0x3e90f48e	0.2831158

weight f4 [64, 64]
0	0xbe2295af	-0.15877412
1	0xbdfb4877	-0.12269681
2	0xbe0cf6d1	-0.13766028
3	0x3dfa7a4c	0.122303575
4	0xbc89c44b	-0.016817233
5	0xbd4e2968	-0.050332457
6	0x3cc32dab	0.023825487
7	0x3bc43c84	0.0059886593
8	0xbda6d6e6	-0.081464574
9	0xbb135430	-0.00224806
10	0xbc6ea0eb	-0.014564733
11	0x3b54c159	0.0032463877
12	0xbd72e29b	-0.05929814
13	0x3d9e1f96	0.07720868
14	0x39738400	0.0002322346
15	0xbdb42acd	-0.08797226
16	0x3d4a8d7e	0.049451344
17	0x3d0450d2	0.03230364
18	0xbd3e5438	-0.046467036
19	0x3b8fdd82	0.0043904195
20	0xbc72ac40	-0.014811575
21	0xbd8078da	-0.062730506
22	0x3d8f1e44	0.069881946
23	0x3d912da4	0.070887834
24	0x3da375da	0.07981463
25	0x3c94417f	0.018097637
26	0xbda1de3a	-0.079037145
27	0xbbf01ea9	-0.0073278737
28	0xbe11b463	-0.14228968
29	0x3ce5b8ad	0.028042162
30	0x3d1cab65	0.038249392
31	0xbd018641	-0.031622175
32	0x3d7233b9	0.059131358
33	0x3c532fcc	0.012889814
34	0xbd1ee647	-0.03879383
35	0x3db896ae	0.09013115
36	0x3cfba460	0.030718029
37	0xbdce7a0a	-0.10081871
38	0xbc9f12f8	-0.019418225
39	0x3d9c3c78	0.07628721
40	0xbda90907	-0.08253675
41	0x3d823ffa	0.06359859
42	0x3d0dabd8	0.03458771
43	0xbdeb4f90	-0.11489785
44	0xbe198295	-0.1499122
45	0xbd14efcd	-0.036361504
46	0xbd06d44b	-0.032917302
47	0x3c9661ab	0.018357119
48	0x3dd68c64	0.10475996
49	0x3d25b28c	0.04045348
50	0xbdc618f8	-0.09672731
51	0x3dc7ba5f	0.09752344
52	0x3d8c25fc	0.068431824
53	0xbd966691	-0.07343782
54	0xbda02496	-0.07819478
55	0x3d51a4c6	0.05118253
56	0xbdc447b4	-0.09583989
57	0x3d91e373	0.071234606
58	0xbc5d42dc	-0.01350471
59	0xbb26659d	-0.0025390156
60	0x3d032190	0.03201443
61	0x3d1ca9b2	0.03824777
62	0x3dab49ef	0.08363711
63	0x3d33a1e7	0.043855574
64	0x3dc355ae	0.095378265
65	0x3db40a55	0.08791033
66	0x3e136004	0.14392096
67	0x3cf3d8e0	0.0297665
68	0x3e553715	0.20821793
69	0x3d9c069a	0.07618447
70	0x3dc7e249	0.09759957
71	0x3df0e000	0.117614746
72	0x3d14099c	0.036141977
73	0x3e878275	0.26466718
74	0xbd55239b	-0.05203591
75	0x3e3c726c	0.18403023
76	0x3df9419c	0.12170717
77	0x3da824f1	0.08210171
78	0xbd5646fc	-0.05231379
79	0x3de02501	0.10944558
80	0x3d81adf5	0.06332008
81	0x3e6f3133	0.23358612
82	0x3e80fb89	0.25191906
83	0x3d8feee9	0.0702799
84	0x3dec77b0	0.11546266
85	0x3e1df930	0.15427089
86	0x3e8ace9c	0.27110755
87	0xbda96d72	-0.08272828
88	0x3de03b0a	0.10948761
89	0x3dedf11a	0.11618252
90	0x3e797ce4	0.24364048
91	0x3e3b6dfb	0.18303673
92	0x3da14343	0.07874157
93	0xbd7bb75b	-0.06145416
94	0x3e8c9ac8	0.2746184
95	0xbd277f5c	-0.040892944
96	0xbd81cbe4	-0.06337717
97	0x3dfbdaa3	0.12297561
98	0xbd8f9e99	-0.07012672
99	0x3da647b4	0.08119145
100	0xbac94780	-0.0015356392
101	0x3e057e4d	0.13036461
102	0x3e16946a	0.14705053
103	0x3e32378f	0.17404006
104	0x3db5de42	0.08880283
105	0x3e69da6e	0.2283723
106	0x3d9782f4	0.07398024
107	0x3db96321	0.090521105
108	0x3d2cb260	0.0421623
109	0x3de27ce0	0.11058974
110	0x3e6e997c	0.23300737
111	0x3e037f20	0.12841463
112	0x3cc13b07	0.023587717
113	0x3df369f9	0.11885447
114	0x3ddd53ee	0.10807024
115	0x3cfff77c	0.03124594
116	0x3d926588	0.07148272
117	0x3e2220bc	0.158328
118	0x3dc79c8c	0.09746656
119	0x3c613f97	0.013748071
120	0xbd4abde5	-0.049497504
121	0x3e170ae4	0.14750248
122	0x3dd04f59	0.10171384
123	0x3b0e0541	0.0021670612
124	0xbd5b0789	-0.053473983
125	0x3e31ff13	0.1738246
126	0xbcb60440	-0.022218823
127	0x3e6f051f	0.23341797
128	0x3d3283f0	0.043582857
129	0x39be2e00	0.00036273897
130	0xbd706638	-0.058691233
131	0x3d55f248	0.05223301
132	0xbc1e7de0	-0.009673566
133	0x3d43a868	0.047768027
134	0x3d615570	0.05501312
135	0xbd92cc3e	-0.07167862
136	0xbdc0dab2	-0.09416713
137	0xbcab5d20	-0.020918429
138	0x3cf0dfb8	0.029403552
139	0x3d48a5f8	0.048986405
140	0xbdf2ed32	-0.11861648
141	0xbd865214	-0.06558624
142	0xbdf7739a	-0.12082596
143	0xbdda33ac	-0.10654387
144	0x3d946790	0.072463155
145	0x3daedb1c	0.085378855
146	0xbd969224	-0.07352093
147	0xbd4e5c08	-0.050380737
148	0xbd2d23a8	-0.042270333
149	0x3c9949c8	0.01871194
150	0x3dc2ebf6	0.09517662
151	0xbdf22018	-0.11822528
152	0xbd57a2bc	-0.05264543
153	0xbccba338	-0.024858102
154	0xbc9a6880	-0.018848658
155	0xbcfc73c8	-0.030816928
156	0xbd724a3c	-0.059152827
157	0x3d738ea8	0.05946222
158	0x3cf39bd0	0.029737383
159	0xbd33ea24	-0.043924466
160	0xbd218b3c	-0.039439425
161	0xbd7fc0a4	-0.062439576
162	0x3de73f8c	0.112914175
163	0x3de08bb2	0.10964145
164	0x3d2e313c	0.042527422
165	0xbc0a8a00	-0.008455753
166	0xbdd1819a	-0.10229798
167	0x3cbc9320	0.023019373
168	0x3b701bc0	0.0036637634
169	0x3dff7fd6	0.12475555
170	0xbdae9d9e	-0.08526157
171	0xbd65ed8c	-0.056134745
172	0xbd98d2bc	-0.074620694
173	0xbd9fda60	-0.078053236
174	0xbdbb2504	-0.091379195
175	0xbd8d3ec0	-0.06896734
176	0x3d32e670	0.043676794
177	0xbce304f8	-0.02771233
178	0x3d2f57f8	0.042808503
179	0xbd4b6bc4	-0.04966332
180	0x3d69b788	0.057059795
181	0x3dab95ba	0.083781675
182	0xbdaae774	-0.083449274
183	0xbd97e5d0	-0.0741688
184	0x3dca54b6	0.098794386
185	0xbd28b614	-0.04118927
186	0xbda6c2d0	-0.08142626
187	0xbd69f4d8	-0.057118267
188	0xbd461e48	-0.048368722
189	0xbdb118f0	-0.086473346
190	0x3d25faa4	0.040522233
191	0x3dad514a	0.0846277
192	0xbe06bcfe	-0.13158032
193	0xbcfe90b5	-0.031074861
194	0x3dd67eeb	0.104734264
195	0x3d8a8b86	0.06764893
196	0xbd38234c	-0.044955537
197	0xbd9ea3aa	-0.0774606
198	0x3d9a8164	0.075442106
199	0x3c1fd157	0.0097545
200	0xbdfb1424	-0.12259701
201	0xbcc02e22	-0.023459498
202	0x3d9c6962	0.07637288
203	0x3db1e699	0.08686561
204	0x3dcb16a4	0.09916428
205	0xbda3caa9	-0.07997639
206	0x3dd8fef0	0.105955005
207	0xbdf8a29b	-0.121403895
208	0xbc292285	-0.0103231715
209	0xbdea7dfb	-0.1144981
210	0xbd4a78f0	-0.04943174
211	0x3d8ceda8	0.06881267
212	0xbac36d80	-0.0014909953
213	0x3d863414	0.06552902
214	0xbdeb61f1	-0.1149329
215	0xbcd81c09	-0.026380556
216	0x3cf59636	0.029978853
217	0xbdc2a24c	-0.09503612
218	0x3cefb96d	0.029263223
219	0x3d13981a	0.036033727
220	0xbcf87379	-0.0303285
221	0x3da4a857	0.08039921
222	0xbc7d1f1c	-0.015449312
223	0x3dcbd61a	0.09952946
224	0xbd4e80e1	-0.050415877
225	0x3dbcd982	0.09221174
226	0x3d9df4a1	0.07712675
227	0xbd72e85c	-0.059303626
228	0x3dc48964	0.09596518
229	0xbde4cba5	-0.111716546
230	0xbdace664	-0.08442381
231	0xbc069ecf	-0.008216574
232	0x3cb25697	0.021769805
233	0x3dbf86d9	0.09351892
234	0x3da24e0c	0.079250425
235	0xbd4c10ae	-0.049820594
236	0xbd23f83e	-0.040031664
237	0x3def5f74	0.11688128
238	0xbe00f8ce	-0.12594911
239	0x3d800806	0.0625153
240	0xbdc91dc0	-0.098201275
241	0xbd92dc8c	-0.07170972
242	0x3c8af478	0.016962275
243	0xbdb675fd	-0.08909223
244	0x3c1e6d3b	0.009669597
245	0xbcbfaa58	-0.023396656
246	0x3d8a2608	0.06745535
247	0x3da87694	0.08225742
248	0x3d7b727c	0.061388478
249	0xbce2fa06	-0.027707111
250	0x3d8e3d62	0.069453016
251	0xbd874864	-0.06605604
252	0x3dd108f2	0.10206784
253	0xbe1d1e9c	-0.15343708
254	0xbcadc58d	-0.021212364
255	0x3d1a021b	0.037599664

bias f4 [64]
0	0x3bb47887	0.005507532
1	0x3e4630a2	0.1935449
2	0xbd4330f0	-0.047654092
3	0xbd1406b7	-0.036139216
4	0xbd452b2f	-0.048136886
5	0xbdcd207c	-0.100159615
6	0xbdaaf116	-0.08346765
7	0x3e0bca55	0.13651402
8	0xba9e756b	-0.0012089437
9	0x3e3128ad	0.17300673
10	0x3e60f82e	0.21969673
11	0x3e178416	0.1479648
12	0x3d96e069	0.073670216
13	0x3e5f100e	0.21783468
14	0xbc8d37cd	-0.017238522
15	0x3deef995	0.11668698
16	0x3d30541d	0.043048967
17	0x3d33f96a	0.04393903
18	0xbc5cfee6	-0.013488507
19	0xbe073a57	-0.13205849
20	0x3cdbfb86	0.026853334
21	0x3d9bf0f8	0.076143205
22	0x3e34aba3	0.17643599
23	0x3d5aa418	0.05337915
24	0x3d86bcdd	0.065789916
25	0x3d6aabbe	0.057292692
26	0x3ca91add	0.020642692
27	0xbd909e23	-0.07061412
28	0xbc04dbed	-0.008109075
29	0x3d9f732a	0.07785638
30	0x3e0f8ada	0.14017811
31	0xbd9c2ad5	-0.07625357
32	0xbda93f90	-0.08264077
33	0x3cb23956	0.021755856
34	0xbdeef89d	-0.11668513
35	0x3dfe4b41	0.12416697
36	0xbd87fca1	-0.06639982
37	0x3d84588b	0.06462201
38	0xbcc9ec48	-0.0246488
39	0xbd83724f	-0.06418287
40	0x3e1f96ef	0.1558492
41	0xbd145ce4	-0.0362214
42	0x3e3af6f7	0.18258272
43	0xbc099060	-0.008396238
44	0x3db08b51	0.086203225
45	0x3db54180	0.08850384
46	0x3d92602f	0.07147252
47	0x3d41f129	0.04734913
48	0xbdc81cdd	-0.0977113
49	0x3dd53ac2	0.10411598
50	0xbdb56ee2	-0.0885904
51	0xbd84585f	-0.06462168
52	0xbd35074c	-0.044196412
53	0x3e3b1e3e	0.18273255
54	0x3e0706c0	0.13186169
55	0x3cfb0460	0.030641735
56	0x3de9ae33	0.11410179
57	0x3c18e147	0.009331054
58	0x3d97ef7c	0.07418725
59	0x3d3a001b	0.045410257
60	0x3e2cd7d1	0.16879202
61	0x3dfe833a	0.12427373
62	0x3e394571	0.18092896
63	0xbd091584	-0.033467785

weight f4 [2, 64]
0	0xbd8e6c35	-0.069542326
1	0xbc6fad97	-0.014628789
2	0xbd242808	-0.04007724
3	0xbc7e8216	-0.015533945
4	0xbbb80fe0	-0.005617127
5	0x3defca38	0.11708492
6	0x3de4c5fc	0.11170575
7	0xbc92efe5	-0.017936656
8	0xbc865ca4	-0.016401596
9	0x3cd6daab	0.026227316
10	0x3d0f5ec3	0.03500248
11	0xbe4c407f	-0.19946478
12	0x3d8a2ead	0.06747184
13	0xbd856d6a	-0.0651501
14	0xbe2af8ac	-0.16696423
15	0xbe3cd8a6	-0.1844202
16	0x3dbf4bee	0.09340654
17	0xbce2f07d	-0.027702564
18	0xbd87b816	-0.066269085
19	0x3dd4c504	0.1038914
20	0xbdbc2abc	-0.091878384
21	0xbe3e9042	-0.18609717
22	0xbd4737ae	-0.048637085
23	0xbcf0a970	-0.02937767
24	0x3d0bdb3d	0.03414463
25	0xbe3aca54	-0.18241245
26	0xbe3f74fa	-0.18696967
27	0x3d9f3dfd	0.07775495
28	0xbd417283	-0.047228348
29	0xbe02bc14	-0.12767059
30	0xbdb3f9b0	-0.087878585
31	0x3d632932	0.05545921
32	0xbd6d7500	-0.057972908
33	0x3debbc6b	0.11510547
34	0xbdd8d455	-0.10587374
35	0xbe0728a8	-0.13199103
36	0xbbab11ce	-0.0052206283
37	0x3dbd2735	0.09235994
38	0xbd3b9e74	-0.04580541
39	0x3d9e9518	0.07743281
40	0xbde5b59d	-0.112162806
41	0xbcef1298	-0.02918367
42	0xbe7c5d2d	-0.24644919
43	0xbd9c868e	-0.07642852
44	0xbe024f21	-0.12725498
45	0x3df8907d	0.12136934
46	0x3d1d3b2e	0.038386516
47	0x3d5d28df	0.053994056
48	0xbc1243c3	-0.008927288
49	0xbd7757d7	-0.060386505
50	0xbd95c295	-0.07312504
51	0x3df3c1f4	0.11902228
52	0x3def7037	0.11691325
53	0x3d133fd5	0.035949547
54	0xbe3084ac	-0.1723811
55	0x3d8796f7	0.06620591
56	0x3dd1680b	0.10224923
57	0xbe424322	-0.18970922
58	0x3c9b884d	0.018985892
59	0x3ded3cb9	0.115838476
60	0xbd1a95f4	-0.037740663
61	0xbd6cf3b4	-0.0578496
62	0xbd4ac75c	-0.04950653
63	0xbd92b3d4	-0.07163206
64	0x3d3ad088	0.045609027
65	0xbe1c7831	-0.15280224
66	0xbd3a0224	-0.045412198
67	0x3dbf4b93	0.093405865
68	0x3d9389c9	0.07204015
69	0xbda19a4a	-0.078907564
70	0xbdea747e	-0.11448
71	0xbe53bdc8	-0.20677865
72	0xbe04a748	-0.12954438
73	0xbe830f50	-0.2559762
74	0xbe73175c	-0.2373938
75	0xbe8b595d	-0.27216616
76	0xba09ae12	-0.0005252074
77	0xbe573087	-0.21014605
78	0xbdf7f500	-0.12107277
79	0xbda8f1df	-0.08249258
80	0xbd8b0022	-0.06787135
81	0xbd394660	-0.04523313
82	0x3e04430e	0.12916204
83	0x3d5f9453	0.054584812
84	0xbd90447a	-0.07044311
85	0xbe72f683	-0.2372685
86	0xbe268a6a	-0.16263738
87	0xbdb4f462	-0.08835675
88	0xbceab620	-0.028651297
89	0xbe36da4a	-0.17856708
90	0xbe5e3f2e	-0.21703789
91	0x3d978c69	0.07399828
92	0xbd490c8b	-0.049084228
93	0xbde4fdc5	-0.11181215
94	0xbe58a985	-0.21158417
95	0x3dbd26da	0.09235926
96	0x3d8ffbb2	0.07030429
97	0x3d1871f6	0.037218057
98	0x3dfe339a	0.12412186
99	0xbe72c4d0	-0.2370789
100	0x3c4b045c	0.012391176
101	0xbaec699b	-0.0018036844
102	0xbd21f778	-0.039542645
103	0x3cbc291f	0.022968827
104	0xbdfe33a5	-0.12412194
105	0x3dc575be	0.09641598
106	0xbe5a32e0	-0.2130847
107	0xbc78f110	-0.0151941925
108	0xbe794ba0	-0.24345255
109	0x3ccdfcd4	0.025144972
110	0x3d478d21	0.048718575
111	0xbcadc899	-0.021213816
112	0x3c9bb768	0.019008353
113	0xbe3aeab5	-0.18253596
114	0xbd8e3df8	-0.06945413
115	0x3d2e49ee	0.042550974
116	0x3df30ffe	0.11868285
117	0xbe624fea	-0.22100797
118	0xbdfca8f0	-0.1233691
119	0xbc140615	-0.009034653
120	0xbd8ab4b8	-0.067727506
121	0xbe3c7216	-0.18402895
122	0x39a3618c	0.0003116246
123	0x3d8d82cd	0.06909714
124	0xbe296374	-0.16541845
125	0xbe4d2cb1	-0.2003658
126	0xbe4c8de6	-0.19976005
127	0x3dde1283	0.108433746

bias f4 [2]
0	0xbc995493	-0.018717086
1	0xbe5ecf62	-0.21758798
