checkpoints/actor14.pt (torch, 21960 bytes, 6 tensors)

weight f4 [64, 4]
000000 e1 7b 86 3b b0 df 51 bc e6 b0 99 bc c2 e9 01 3f
       0.004104123 -0.012809679 -0.01876111 0.5074731
000010 18 34 96 bd 05 6e 12 bf 1d 27 49 be 0f 2f c7 bc
       -0.07334155 -0.57199126 -0.19643827 -0.024314431
000020 61 22 f6 3e fe 66 00 be d5 43 16 3e c7 a6 94 be
       0.48073104 -0.12539288 0.14674313 -0.2903349
000030 bc 03 05 be aa 35 af be 70 1a 2d 3e be cb 92 be
       -0.12989706 -0.3422063 0.16904616 -0.28671068
000040 78 55 25 be 8d d0 d4 3c e0 52 98 3e d5 12 89 3e
       -0.16145885 0.025978351 0.2975073 0.2677218
000050 78 97 96 bd 44 d2 c2 3e 8c 29 16 3e 4e 72 a3 3e
       -0.07353109 0.38051045 0.14664286 0.31923145
000060 96 75 81 3e f2 08 a4 be 1a 9c af 3d 3e be 68 bc
       0.25285023 -0.32038075 0.08574696 -0.0142055135
000070 b8 43 c4 be 91 7b 04 bc 89 99 0e 3e b6 b0 97 3d
       -0.38332915 -0.008086101 0.13925757 0.07406752
000080 a4 2e c8 be 1f 64 bc be 93 94 91 3e ed 60 56 3e
       -0.39098084 -0.36795136 0.28433666 0.20935412
000090 f8 50 f7 be 3f e7 9b be 9c 38 9a be ea a8 28 3e
       -0.48303962 -0.30449864 -0.30121315 0.16470686
0000a0 41 66 1c 3e 44 e4 40 bd 96 b4 9b bd d9 7d 36 bd
       0.15273382 -0.04709269 -0.076028034 -0.04455361
0000b0 13 d6 d7 3d 28 83 b4 be cb bd a5 3e c4 8f 17 bd
       0.10538878 -0.35256314 0.32371363 -0.03700234
0000c0 9a d2 f5 be f8 99 6a be c2 78 2f bd b1 83 cc bd
       -0.4801224 -0.22910297 -0.042839773 -0.09986056
0000d0 cc 69 bb bd 0b 4a 67 be 41 28 7c bb b4 c6 da bd
       -0.091510385 -0.22586839 -0.0038476142 -0.10682431
0000e0 1a 63 d2 3e f4 8b 23 3e a8 55 f5 bd c0 31 68 bc
       0.41091233 0.15971357 -0.11979228 -0.014172018
0000f0 6f 6e 96 be 53 6a 01 bf 12 cb 1c 3f ab f5 59 3d
       -0.2938113 -0.5055286 0.6124736 0.053212803
000100 cd f7 6e be 28 94 ea 3e ca 1e 04 bf 46 4e 10 be
       -0.23336716 0.4581616 -0.5160948 -0.14092359
000110 3d 9a 1a bf d3 36 47 3e 8d 25 5d be a8 78 98 3e
       -0.603916 0.19454508 -0.21596356 0.29779553
000120 d3 8a 78 3d 84 c1 54 bd 07 20 9e 3e 35 3d ca 3d
       0.060679268 -0.051942363 0.3088381 0.098749556
000130 7d 67 f3 be 74 0f ac 3d 56 e2 db 3d 3f 15 d6 3e
       -0.47539893 0.08401385 0.107365295 0.41813084
000140 b0 c2 d0 3d 60 a4 5e 3e 00 ea 44 3b 88 af 4a 3e
       0.10193384 0.21742392 0.0030046701 0.19793522
000150 18 43 48 3e 9a 34 03 bd 63 dd e1 be 50 fe 8b be
       0.19556844 -0.032032587 -0.44114217 -0.27342463
000160 23 00 82 be 7f 90 21 bf d3 0a 15 3f cb 0d 1f bd
       -0.2539073 -0.6311111 0.5821964 -0.038831513
000170 db 86 5f 3e a2 f7 1f 3e 67 ac 06 3f 8c cf 40 be
       0.21828787 0.15621808 0.52606815 -0.18829173
000180 60 c3 05 bd 44 b7 c6 be 46 73 0a 3f 43 02 97 3c
       -0.032657027 -0.38811696 0.54082143 0.018433696
000190 95 c8 84 be 19 33 0a bf 8d b1 80 be a0 db ef 3c
       -0.25934282 -0.5398422 -0.2513546 0.02927953
0001a0 90 24 17 bf 68 86 ac bd a3 1d 4c 3e 61 44 13 3f
       -0.59040165 -0.084240735 0.1993318 0.5752621
0001b0 6f 4c 8f 3e 1c 45 9d be c8 b8 87 be 8a bf d1 3d
       0.27988002 -0.3071679 -0.26508164 0.10241611
0001c0 b2 2e 1b bf e1 94 15 bc 87 24 02 3f 24 22 be 3e
       -0.60618126 -0.009129734 0.50836986 0.37135422
0001d0 09 4e a6 be ce 43 11 3c 7c a7 55 bc 1e de 79 be
       -0.3248141 0.008866264 -0.01304042 -0.24401137
0001e0 4b e4 0d bf 01 ef cf bd d3 c7 07 3f 45 b5 5e 3e
       -0.5542647 -0.10153008 0.5303928 0.21748836
0001f0 df 8e 95 3e 76 6a 64 be 02 35 0b 3f f7 e1 7a be
       0.29210564 -0.22306237 0.5437776 -0.24500261
000200 13 35 de bd c6 46 73 3e 1a 33 14 be 83 59 a6 bd
       -0.10849967 0.23757467 -0.14472619 -0.08122542
000210 43 70 0e bf 8e 32 f4 bd a7 f8 d1 bd 60 fd 8e 3e
       -0.5564005 -0.11923705 -0.10252505 0.27927685
000220 8f cc f9 3d 62 00 e1 bd dd ea 4a 3e 8c 28 f6 bc
       0.121972196 -0.10986401 0.19816156 -0.030048631
000230 90 aa c4 3e aa 36 fd be ec bc 53 be a8 8b ca be
       0.3841138 -0.49455768 -0.20677537 -0.39559674
000240 dc 46 01 3e 20 c5 10 be 0c 1a 44 be 00 da 44 bc
       0.12624687 -0.14137697 -0.19150561 -0.012014866
000250 fb f9 d3 3c 6d 8b 9b 3e 06 3c 55 3e ae cd 12 3f
       0.025876036 0.3037981 0.20823678 0.5734509
000260 9e c9 60 be 23 ed 86 3b 91 41 55 3d c6 95 ac 3e
       -0.21951911 0.0041176244 0.052064482 0.33708018
000270 6d 26 43 be d0 f2 d7 be 99 14 c9 3e 01 03 b5 3e
       -0.19057627 -0.4217744 0.39273527 0.35353854
000280 74 6e 00 3f 47 87 ac be e8 99 71 3e 63 64 df be
       0.5016854 -0.33696958 0.23593867 -0.43631276
000290 45 f6 a9 bc d6 23 16 bf 62 e8 1e be 14 ca b6 3e
       -0.020747313 -0.5864843 -0.15518335 0.35701048
0002a0 71 89 08 bf f0 46 8e bd f9 a1 82 3e 57 fd f8 3d
       -0.5333472 -0.06947124 0.255142 0.12157696
0002b0 2f 68 e3 3e 3b 34 cd 3e 4b 65 98 be 2a cb 8b bc
       0.44415423 0.4007891 -0.2976478 -0.01706465
0002c0 02 31 87 3e 23 70 b2 3e bd 77 71 be 9a 07 20 3f
       0.26404577 0.3485118 -0.23580833 0.625116
0002d0 cd fb bf be d4 a9 74 3d 1f 77 ee 3d 5d 53 aa be
       -0.37496796 0.059732273 0.11643814 -0.33266726
0002e0 3e 80 b0 be 27 60 c0 be 26 e0 a5 be 28 0f e7 3e
       -0.3447284 -0.37573358 -0.32397574 0.4512875
0002f0 f6 8c 4d 3e d9 da 2d 3e 31 90 2f 3c 2b fb eb 3e
       0.20073304 0.16978015 0.01071553 0.46090063
000300 93 7a d3 3d ae 7e b3 3d dd f9 cc ba 46 72 cb be
       0.103261136 0.087643966 -0.001563843 -0.3973562
000310 3a 35 33 3e 29 3f 6c 3e 33 fe ed 3e cc 7d 79 be
       0.17500773 0.23070969 0.46483 -0.24364394
000320 1c 34 cd 3e d9 29 13 3d d8 2b ef 3e ca c8 a8 3d
       0.4007882 0.03592858 0.46713138 0.082414225
000330 fc 4a b4 3d e6 80 e0 3e be d5 11 3e 20 6a 35 3d
       0.08803365 0.43848342 0.14241692 0.04429066
000340 72 e5 62 be 02 03 b7 be 38 fd 3c bb c8 d1 56 be
       -0.22157839 -0.35744482 -0.0028837454 -0.20978463
000350 7e a4 1c be 97 03 71 be 57 45 0e be 34 5b 6b 3e
       -0.15297124 -0.23536526 -0.13893639 0.2298401
000360 ba 4a c0 3e e0 8a b1 3c 3c 04 78 be f0 0f 35 3d
       0.37557012 0.021672666 -0.24220365 0.044204652
000370 ed a1 3f 3d 4c e5 21 3e da 77 f4 3e a9 a9 13 3f
       0.046785284 0.15810126 0.4774769 0.57680756
000380 3a 38 95 3e a1 b6 ff 3e 78 a2 30 3c 30 7c c1 be
       0.2914446 0.49944022 0.010780923 -0.3779006
000390 2e 53 03 bf 99 77 13 bf 40 ae 95 3d 5d 72 14 be
       -0.512988 -0.57604367 0.07308626 -0.14496751
0003a0 3f 7c 31 be dc e7 d9 be f5 ed 3f 3c 81 8a f4 3e
       -0.17332552 -0.42559707 0.011714448 0.4776192
0003b0 4c b8 aa bd 1a f0 6d be 0a 73 0a 3f ea dc 75 be
       -0.08335933 -0.23236123 0.54081786 -0.24010053
0003c0 3b 88 60 3e 62 cf 1a be 26 db 88 3d cd 40 8f be
       0.21926968 -0.15118173 0.06682424 -0.27979127
0003d0 2b 2e 31 be 16 9e c6 3d d1 2c fe 3e 46 bb dd 3e
       -0.17302768 0.09698121 0.49643567 0.4330694
0003e0 8a 69 82 3e 8e cd 71 be 90 4d 9f be 23 fd 49 3e
       0.25471145 -0.23613569 -0.31113863 0.1972547
0003f0 e4 f0 1d 3e 1a a2 d7 be a4 a9 d1 3e e2 c2 bb 3d
       0.15423924 -0.4211586 0.40949738 0.0916803

bias f4 [64]
000000 05 09 88 3e b0 72 92 bb 96 00 9f 3e f4 40 9f be
       0.2656938 -0.004469238 0.31055135 -0.31104243
000010 52 ac ce 3e 50 2a e3 be 50 cf 06 3f 26 bd 19 3f
       0.40365845 -0.4436822 0.52660084 0.6005424
000020 3c 82 a3 be db f2 0e be 9c 4e 08 bd 1d cc 91 3e
       -0.31935298 -0.1395983 -0.033278093 0.2847604
000030 00 18 df 3e fd 3e 04 3f dc 48 ec be 89 8b 22 be
       0.43572998 0.5165861 -0.46149337 -0.15873541
000040 8f 34 8c 3c 5c 15 27 3f 63 9d 7c 3e 4f 77 cc 3c
       0.017114906 0.65266967 0.24669413 0.024959235
000050 0c 8e c9 be 37 eb f4 3e 35 5a 9d be 72 cb 80 3e
       -0.39366186 0.47835705 -0.30732885 0.25155216
000060 38 1b d2 3e 4e bf 62 be cf 7d ba bd 56 1c d6 3c
       0.4103639 -0.2214329 -0.09106027 0.026136559
000070 1e 25 05 3f c4 bb c7 be f4 6c 3d be f6 5f 33 3f
       0.5200976 -0.3901044 -0.18498594 0.700683
000080 bf ac 2d be c9 3c 73 be 64 9e 5d be a8 70 ea be
       -0.16960429 -0.23753656 -0.21642452 -0.45789075
000090 48 c6 b5 be 41 45 a1 be 61 47 db 3e 3d d9 55 3e
       -0.3550284 -0.3149815 0.42827895 0.20883651
0000a0 c6 1a b7 bd 07 83 f6 3e c9 2e 08 3f 77 85 b5 be
       -0.089406535 0.4814684 0.5319639 -0.35453388
0000b0 24 e7 95 bd 34 b7 83 be 2c 2a 5c be 99 1e 13 3f
       -0.07319477 -0.2572571 -0.21500462 0.57468563
0000c0 cb 32 ba be 93 0a fe 3e b8 0b 05 3f 09 a1 7f be
       -0.36366877 0.49617442 0.51971006 -0.24963774
0000d0 7f 3c 99 be 9b fc 75 be 2c 18 75 be 1b 02 b1 3d
       -0.29928967 -0.24022143 -0.23935002 0.0864298
0000e0 e8 16 cb be 0f 80 ed 3e 2a 4a 8d be 98 c9 45 3f
       -0.39665914 0.46386763 -0.27595645 0.7726073
0000f0 01 0f 39 be e0 af 01 3f f6 ab b5 3e f7 ef bb 3e
       -0.1807213 0.5065899 0.35482758 0.36706516

weight f4 [64, 64]
000000 dc da 22 be 21 e9 fb bd cd 2e 0d be 4c 7a fa 3d
       -0.159038 -0.12300325 -0.13787384 0.122303575
000010 9d fa 8d bc 68 29 4e bd 2a 5c bc 3c f2 f0 ac 3b
       -0.017331416 -0.050332457 0.022993166 0.0052777464
000020 06 d7 a6 bd 18 e9 3e bb eb a0 6e bc 68 e4 18 3b
       -0.08146481 -0.0029130634 -0.014564733 0.00233295
000030 df 79 76 bd d5 67 9c 3d 00 84 73 39 02 45 b4 bd
       -0.06017482 0.07636992 0.0002322346 -0.08802225
000040 cc 75 4a 3d 71 f0 01 3d 10 fe 42 bd e0 4f 89 3b
       0.049428746 0.031723443 -0.047605574 0.00419043
000050 40 ac 72 bc fc ff 80 bd 31 1e 8f 3d c9 e8 90 3d
       -0.014811575 -0.06298825 0.069881804 0.0707565
000060 e0 9f 9f 3d 48 23 94 3c 46 05 a2 bd 29 84 7a bc
       0.077941656 0.01808323 -0.07911162 -0.0152902985
000070 b9 14 12 be ad b8 e5 3c 96 a7 1c 3d e2 82 03 bd
       -0.14265718 0.028042162 0.03824576 -0.03210724
000080 b9 33 72 3d 1b 29 53 3c 47 e6 1e bd ae 96 b8 3d
       0.059131358 0.012888218 -0.03879383 0.09013115
000090 60 a4 fb 3c 0a 7a ce bd f3 df b0 bc 99 d8 9b 3d
       0.030718029 -0.10081871 -0.021591162 0.07609672
0000a0 07 09 a9 bd 21 bd 81 3d 84 54 0b 3d 90 4f eb bd
       -0.08253675 0.063349016 0.034016147 -0.11489785
0000b0 7f c6 19 be cd ef 14 bd d9 02 07 bd 9b ba 92 3c
       -0.15017127 -0.036361504 -0.0329617 0.017911246
0000c0 64 8c d6 3d 44 7e 24 3d 09 43 c7 bd 5f ba c7 3d
       0.10475996 0.04015948 -0.09729583 0.09752344
0000d0 fc 25 8c 3d 82 6e 96 bd 96 24 a0 bd fe e3 50 3d
       0.068431824 -0.073452964 -0.07819478 0.05099868
0000e0 b4 47 c4 bd df 79 8f 3d d6 cd 5d bc 63 dd 4b bb
       -0.09583989 0.07005667 -0.013537845 -0.0031107299
0000f0 90 21 03 3d 81 13 1b 3d 20 e3 a9 3d bd f9 1a 3d
       0.03201443 0.037860397 0.08295274 0.037835825
000100 3c 3f d0 3d 6e ad be 3d 21 95 27 3e e0 d8 f3 3c
       0.10168311 0.09310423 0.16365482 0.0297665
000110 4f 4b 5e 3e 9a 06 9c 3d 8c 8d 2d 3e ee d0 07 3e
       0.21708415 0.07618447 0.16948527 0.13263294
000120 80 7b 1e 3d 9c 7e 89 3e 9b 23 55 bd 90 52 47 3e
       0.038691998 0.26854408 -0.05203591 0.19465089
000130 e0 59 10 3e b5 76 d9 3d fc 46 56 bd d9 20 e7 3d
       0.14096785 0.10618345 -0.05231379 0.11285562
000140 e8 42 82 3d 4e 8f 7a 3e c3 ea 87 3e 54 09 9a 3d
       0.063604176 0.24468729 0.26546296 0.075213104
000150 b0 77 ec 3d 80 12 33 3e b4 36 8c 3e 82 ac 92 bd
       0.11546266 0.17487526 0.27385485 -0.071618095
000160 1c a0 47 3e 43 86 f4 3d d4 38 7d 3e 69 f9 42 3e
       0.1949467 0.11939671 0.2472871 0.19040455
000170 03 d0 b0 3d 5b b7 7b bd 39 24 8e 3e af dc 4e 3a
       0.08633425 -0.06145416 0.2776201 0.0007891161
000180 e4 cb 81 bd c9 e0 00 3e 99 9e 8f bd b4 47 a6 3d
       -0.06337717 0.12585749 -0.07012672 0.08119145
000190 80 47 c9 ba af a5 08 3e a9 0a 66 3e c8 b9 37 3e
       -0.0015356392 0.13344453 0.22465004 0.17941964
0001a0 42 de b5 3d ca 34 70 3e f7 a4 ac 3d 21 63 b9 3d
       0.08880283 0.23457637 0.08429902 0.090521105
0001b0 e1 18 3f 3d e0 7c e2 3d 4c d9 71 3e d9 87 0c 3e
       0.046654586 0.11058974 0.23618048 0.13723697
0001c0 07 3b c1 3c a3 96 0f 3e db 50 28 3e 7c f7 ff 3c
       0.023587717 0.14022307 0.16437094 0.03124594
0001d0 88 65 92 3d 79 43 25 3e 8c 9c c7 3d 33 1a 9c 3c
       0.07148272 0.1613902 0.09746656 0.019055462
0001e0 e5 bd 4a bd b4 49 6a 3e e4 7f d6 3d 22 66 4a 3d
       -0.049497504 0.22879678 0.10473612 0.049413808
0001f0 89 07 5b bd c9 0f 3a 3e d1 94 75 3d 29 28 9d 3e
       -0.053473983 0.18170084 0.059956376 0.30694702
000200 f0 83 32 3d 00 2e be 39 38 66 70 bd 48 f2 55 3d
       0.043582857 0.00036273897 -0.058691233 0.05223301
000210 e0 7d 1e bc 68 a8 43 3d 70 55 61 3d 3e cc 92 bd
       -0.009673566 0.047768027 0.05501312 -0.07167862
000220 b2 da c0 bd 20 5d ab bc b8 df f0 3c f8 a5 48 3d
       -0.09416713 -0.020918429 0.029403552 0.048986405
000230 32 ed f2 bd 14 52 86 bd 9a 73 f7 bd ac 33 da bd
       -0.11861648 -0.06558624 -0.12082596 -0.10654387
000240 90 67 94 3d 1c db ae 3d 24 92 96 bd 08 5c 4e bd
       0.072463155 0.085378855 -0.07352093 -0.050380737
000250 a8 23 2d bd c8 49 99 3c f6 eb c2 3d 18 20 f2 bd
       -0.042270333 0.01871194 0.09517662 -0.11822528
000260 bc a2 57 bd 38 a3 cb bc 80 68 9a bc c8 73 fc bc
       -0.05264543 -0.024858102 -0.018848658 -0.030816928
000270 3c 4a 72 bd a8 8e 73 3d d0 9b f3 3c 24 ea 33 bd
       -0.059152827 0.05946222 0.029737383 -0.043924466
000280 3c 8b 21 bd a4 c0 7f bd 8c 3f e7 3d b2 8b e0 3d
       -0.039439425 -0.062439576 0.112914175 0.10964145
000290 3c 31 2e 3d 00 8a 0a bc 9a 81 d1 bd 20 93 bc 3c
       0.042527422 -0.008455753 -0.10229798 0.023019373
0002a0 c0 1b 70 3b d6 7f ff 3d 9e 9d ae bd 8c ed 65 bd
       0.0036637634 0.12475555 -0.08526157 -0.056134745
0002b0 bc d2 98 bd 60 da 9f bd 04 25 bb bd c0 3e 8d bd
       -0.074620694 -0.078053236 -0.091379195 -0.06896734
0002c0 70 e6 32 3d f8 04 e3 bc f8 57 2f 3d c4 6b 4b bd
       0.043676794 -0.02771233 0.042808503 -0.04966332
0002d0 88 b7 69 3d ba 95 ab 3d 74 e7 aa bd d0 e5 97 bd
       0.057059795 0.083781675 -0.083449274 -0.0741688
0002e0 b6 54 ca 3d 14 b6 28 bd d0 c2 a6 bd d8 f4 69 bd
       0.098794386 -0.04118927 -0.08142626 -0.057118267
0002f0 48 1e 46 bd f0 18 b1 bd a4 fa 25 3d 4a 51 ad 3d
       -0.048368722 -0.086473346 0.040522233 0.0846277
000300 fe bc 06 be b5 90 fe bc eb 7e d6 3d 86 8b 8a 3d
       -0.13158032 -0.031074861 0.104734264 0.06764893
000310 4c 23 38 bd aa a3 9e bd 64 81 9a 3d 57 d1 1f 3c
       -0.044955537 -0.0774606 0.075442106 0.0097545
000320 24 14 fb bd 22 2e c0 bc 62 69 9c 3d 99 e6 b1 3d
       -0.12259701 -0.023459498 0.07637288 0.08686561
000330 a4 16 cb 3d a9 ca a3 bd f0 fe d8 3d 9b a2 f8 bd
       0.09916428 -0.07997639 0.105955005 -0.121403895
000340 85 22 29 bc fb 7d ea bd f0 78 4a bd a8 ed 8c 3d
       -0.0103231715 -0.1144981 -0.04943174 0.06881267
000350 80 6d c3 ba 14 34 86 3d f1 61 eb bd 09 1c d8 bc
       -0.0014909953 0.06552902 -0.1149329 -0.026380556
000360 36 96 f5 3c 4c a2 c2 bd 6d b9 ef 3c 1a 98 13 3d
       0.029978853 -0.09503612 0.029263223 0.036033727
000370 79 73 f8 bc 57 a8 a4 3d 1c 1f 7d bc 1a d6 cb 3d
       -0.0303285 0.08039921 -0.015449312 0.09952946
000380 e1 80 4e bd 82 d9 bc 3d a1 f4 9d 3d 5c e8 72 bd
       -0.050415877 0.09221174 0.07712675 -0.059303626
000390 64 89 c4 3d a5 cb e4 bd 64 e6 ac bd cf 9e 06 bc
       0.09596518 -0.111716546 -0.08442381 -0.008216574
0003a0 97 56 b2 3c d9 86 bf 3d 0c 4e a2 3d ae 10 4c bd
       0.021769805 0.09351892 0.079250425 -0.049820594
0003b0 3e f8 23 bd 74 5f ef 3d ce f8 00 be 06 08 80 3d
       -0.040031664 0.11688128 -0.12594911 0.0625153
0003c0 c0 1d c9 bd 8c dc 92 bd 78 f4 8a 3c fd 75 b6 bd
       -0.098201275 -0.07170972 0.016962275 -0.08909223
0003d0 3b 6d 1e 3c 58 aa bf bc 08 26 8a 3d 94 76 a8 3d
       0.009669597 -0.023396656 0.06745535 0.08225742
0003e0 7c 72 7b 3d 06 fa e2 bc 62 3d 8e 3d 64 48 87 bd
       0.061388478 -0.027707111 0.069453016 -0.06605604
0003f0 f2 08 d1 3d 9c 1e 1d be 8d c5 ad bc 1b 02 1a 3d
       0.10206784 -0.15343708 -0.021212364 0.037599664

bias f4 [64]
000000 11 be a6 3b 39 30 52 3e f0 30 43 bd b7 06 14 bd
       0.0050885757 0.20526208 -0.047654092 -0.036139216
000010 2f 2b 45 bd 7c 20 cd bd 16 f1 aa bd 89 d3 14 3e
       -0.048136886 -0.100159615 -0.08346765 0.1453382
000020 05 01 c3 3d 2f 9d 39 3e 26 5a 6d 3e 28 48 5b 3e
       0.09521679 0.18126367 0.2317892 0.21414244
000030 92 52 95 3d 20 22 67 3e c2 88 be 3c 40 7d 00 3e
       0.0729114 0.22571611 0.02325857 0.12547779
000040 1d 54 30 3d 6a f9 33 3d e6 fe 5c bc 57 3a 07 be
       0.043048967 0.04393903 -0.013488507 -0.13205849
000050 86 fb db 3c a7 8a b1 3d 1e c8 40 3e 18 a4 5a 3d
       0.026853334 0.08669024 0.18826339 0.05337915
000060 19 b1 9c 3d 3f 87 82 3d fd 45 df 3c 23 9e 90 bd
       0.07650966 0.063734524 0.027255053 -0.07061412
000070 ed db 04 bc 67 98 b3 3d 59 40 17 3e d5 2a 9c bd
       -0.008109075 0.08769303 0.1477064 -0.07625357
000080 90 3f a9 bd a5 f7 ae 3c 9d f8 ee bd 91 cb 05 3e
       -0.08264077 0.02135832 -0.11668513 0.13065936
000090 a1 fc 87 bd 8b 58 84 3d 48 ec c9 bc 28 62 84 bd
       -0.06639982 0.06462201 -0.0246488 -0.06464034
0000a0 4a b1 29 3e e4 5c 14 bd d9 c3 8d 3e 60 90 09 bc
       0.16571537 -0.0362214 0.27688482 -0.008396238
0000b0 7b 18 be 3d 6c dd b3 3d 0a 60 92 3d 29 f1 41 3d
       0.09282013 0.08782467 0.07147224 0.04734913
0000c0 dd 1c c8 bd 7a d8 e6 3d e2 6e b5 bd 5f 58 84 bd
       -0.0977113 0.112717584 -0.0885904 -0.06462168
0000d0 4c 07 35 bd 11 ca 43 3e eb 8e 3e 3e 60 04 fb 3c
       -0.044196412 0.19120051 0.18609206 0.030641735
0000e0 33 ae e9 3d 05 ad 81 3c 7c ef 97 3d 1b 00 3a 3d
       0.11410179 0.015829572 0.07418725 0.045410257
0000f0 ef 4c 37 3e df 66 07 3e 66 b2 41 3e 84 15 09 bd
       0.17900442 0.13222836 0.1891571 -0.033467785

weight f4 [2, 64]
000000 37 f8 8e bd 95 66 dc bc 08 28 24 bd 16 82 7e bc
       -0.06980937 -0.026904384 -0.04007724 -0.015533945
000010 e0 0f b8 bb 38 ca ef 3d fc c5 e4 3d af 87 f2 bc
       -0.005617127 0.11708492 0.11170575 -0.029605715
000020 8b 23 fb bd bf 9f 55 3c d2 9c 7a bc ac f2 8d be
       -0.12262639 0.013038575 -0.015296178 -0.27724206
000030 e6 0a 8a 3d 55 ff 9c bd 83 08 80 be d0 8a 4b be
       0.0674036 -0.07665888 -0.25006494 -0.19877172
000040 ee 4b bf 3d 7d f0 e2 bc 16 b8 87 bd 04 c5 d4 3d
       0.09340654 -0.027702564 -0.066269085 0.1038914
000050 bc 2a bc bd d6 12 61 be ee 76 8a bd 70 a9 f0 bc
       -0.091878384 -0.21979842 -0.06760965 -0.02937767
000060 9c 12 dd 3c 2c e7 42 be 1e e2 4b be fd 3d 9f 3d
       0.026986413 -0.19033498 -0.19910476 0.07775495
000070 83 72 41 bd 6a 99 0f be 9d 8c ca bd 32 29 63 3d
       -0.047228348 -0.14023367 -0.09890101 0.05545921
000080 00 75 6d bd 2d ba eb 3d 55 d4 d8 bd 0a 6f 0f be
       -0.057972908 0.115101196 -0.10587374 -0.14007202
000090 ce 11 ab bb 35 27 bd 3d 74 9e 3b bd e2 8e 9e 3d
       -0.0052206283 0.09235994 -0.04580541 0.077420965
0000a0 dd a0 fe bd 98 12 ef bc 89 44 b3 be 8e 86 9c bd
       -0.12433026 -0.02918367 -0.35013226 -0.07642852
0000b0 3a 93 0c be ae 72 f8 3d 27 3b 1d 3d df 28 5d 3d
       -0.13728037 0.121312484 0.03838649 0.053994056
0000c0 c3 43 12 bc 1f 25 92 bd 95 c2 95 bd f4 c1 f3 3d
       -0.008927288 -0.071359865 -0.07312504 0.11902228
0000d0 37 70 ef 3d 23 c5 dd 3c 80 00 86 be f7 96 87 3d
       0.11691325 0.027071541 -0.26172256 0.06620591
0000e0 0b 68 d1 3d 5f 89 4c be 4d 88 9b 3c b9 3c ed 3d
       0.10224923 -0.19974278 0.018985892 0.115838476
0000f0 38 5d 4d bd b6 cd 89 bd 09 a2 75 bd d4 b3 92 bd
       -0.05013773 -0.067286894 -0.059968982 -0.07163206
000100 40 0f 39 3d 85 74 24 be 24 02 3a bd 93 4b bf 3d
       0.04518056 -0.16060074 -0.045412198 0.093405865
000110 c9 89 93 3d 4a 9a a1 bd 7e 74 ea bd fa 7e 5c be
       0.07204015 -0.078907564 -0.11448 -0.21532813
000120 8a a6 87 be 3c 5c 87 be 82 74 85 be 57 47 b1 be
       -0.26494247 -0.26437557 -0.2606545 -0.3462474
000130 9b 4b 48 ba f3 7b 60 be 18 40 2b be 79 23 bf bd
       -0.00076406606 -0.21922283 -0.16723669 -0.09332938
000140 22 00 8b bd 60 46 39 bd 0e 43 04 3e 53 94 5f 3d
       -0.06787135 -0.04523313 0.12916204 0.054584812
000150 7a 44 90 bd 00 39 80 be b5 e2 31 be 62 f4 b4 bd
       -0.07044311 -0.25043488 -0.17371638 -0.08835675
000160 36 93 73 bd da ad 3d be 11 3f 66 be 69 8c 97 3d
       -0.059466563 -0.1852335 -0.22484995 0.07399828
000170 8b 0c 49 bd cc 91 f7 bd 23 36 61 be da 26 bd 3d
       -0.049084228 -0.120883554 -0.21993308 0.09235926
000180 b2 fb 8f 3d 03 57 18 3d 9a 33 fe 3d 3f 60 79 be
       0.07030429 0.037192356 0.12412186 -0.24353121
000190 5c 04 4b 3c e6 69 ec ba 78 f7 21 bd 6f 16 bc 3c
       0.012391176 -0.0018036931 -0.039542645 0.022959916
0001a0 2a ed 07 be be 75 c5 3d 86 a9 a2 be 10 f1 78 bc
       -0.13274065 0.09641598 -0.3176996 -0.0151941925
0001b0 7f 9c 80 be 3a 79 cc 3c 03 8d 47 3d 99 c8 ad bc
       -0.25119397 0.02496015 0.048718464 -0.021213816
0001c0 68 b7 9b 3c 70 f5 43 be f8 3d 8e bd ee 49 2e 3d
       0.019008353 -0.19136596 -0.06945413 0.042550974
0001d0 fe 0f f3 3d ed 75 69 be bf d4 39 be 15 06 14 bc
       0.11868285 -0.22798891 -0.18147562 -0.009034653
0001e0 b8 b4 8a bd dd b3 44 be ff 60 a3 39 cd 82 8d 3d
       -0.067727506 -0.19209237 0.0003116205 0.06909714
0001f0 c1 e4 32 be 61 f4 54 be e8 4f 55 be 83 12 de 3d
       -0.17470075 -0.20796348 -0.20831263 0.108433746

bias f4 [2]
000000 40 59 b3 bc 1d 8b 63 be
       -0.021893144 -0.22221036
