checkpoints/actor13.pt (torch, 21960 bytes, 6 tensors)

weight f4 [64, 4]
0	0x3b887feb	0.0041656396
1	0xbc260697	-0.010133407
2	0xbcac032e	-0.02099761
3	0x3f013de0	0.5048504
4	0xbd961d73	-0.07329836
5	0xbf11dda4	-0.5697882
6	0xbe4b09ae	-0.19827911
7	0xbcd8cf58	-0.026466057
8	0x3ef0c207	0.4702303
9	0xbdd3ec31	-0.10347784
10	0x3e0aae10	0.13542962
11	0xbe9f7277	-0.31142017
12	0xbe0503bc	-0.12989706
13	0xbeaf35aa	-0.3422063
14	0x3e2d1a70	0.16904616
15	0xbe92cbbe	-0.28671068
16	0xbe254602	-0.16139987
17	0x3cea6b42	0.028615598
18	0x3e973041	0.29529002
19	0x3e87c098	0.26514125
20	0xbd969778	-0.07353109
21	0x3ec2d244	0.38051045
22	0x3e16298c	0.14664286
23	0x3ea3724e	0.31923145
24	0x3e820adf	0.2539892
25	0xbe942da0	-0.2894106
26	0x3d57af67	0.05265751
27	0xbd394f5c	-0.0452417
28	0xbec4363a	-0.38322622
29	0xbb908c2c	-0.004411241
30	0x3e0b7eb3	0.1362255
31	0x3d9045c9	0.070445605
32	0xbec7b6a9	-0.39006546
33	0xbebb8c8c	-0.36630666
34	0x3e90e2b8	0.28297973
35	0x3e54b497	0.20772015
36	0xbef6d5f6	-0.48210114
37	0xbe9acbd7	-0.30233642
38	0xbe9b1932	-0.3029266
39	0x3e2674b5	0.16255458
40	0x3e1c6641	0.15273382
41	0xbd40e444	-0.04709269
42	0xbd9bb496	-0.076028034
43	0xbd367dd9	-0.04455361
44	0x3dd7fcb5	0.10546247
45	0xbeb30319	-0.349633
46	0x3ea47f6d	0.32128468
47	0xbd235a74	-0.039881185
48	0xbef5c646	-0.48002833
49	0xbe66f300	-0.22553635
50	0xbd3b92b9	-0.045794223
51	0xbdd3b2ae	-0.10336815
52	0xbdbb205a	-0.0913703
53	0xbe624af7	-0.2209891
54	0xbc0167e6	-0.0078983065
55	0xbde49d5f	-0.11162829
56	0x3ed2631a	0.41091233
57	0x3e238bf4	0.15971357
58	0xbdf555a8	-0.11979228
59	0xbc6831c0	-0.014172018
60	0xbe95edc5	-0.29282966
61	0xbf00d802	-0.503296
62	0x3f1c55fa	0.6106869
63	0x3d50e301	0.050997738
64	0xbe6edf95	-0.23327477
65	0x3eea91b8	0.458143
66	0xbf04138e	-0.5159234
67	0xbe104c29	-0.14091553
68	0xbf1a95dc	-0.6038492
69	0x3e49f120	0.19720888
70	0xbe5f6c27	-0.218186
71	0x3e972285	0.29518524
72	0x3d78de48	0.06075886
73	0xbd480c46	-0.04883983
74	0x3e9cceb1	0.30626443
75	0x3dc3ff42	0.09570171
76	0xbef35cdc	-0.47531784
77	0x3db1543f	0.08658647
78	0x3dd77ab0	0.10521448
79	0x3ed4caeb	0.41561064
80	0x3dd0c2b0	0.10193384
81	0x3e5ea460	0.21742392
82	0x3b44ea00	0.0030046701
83	0x3e4aaf88	0.19793522
84	0x3e3b03ab	0.18263118
85	0xbac9e240	-0.0015402511
86	0xbeecb1a5	-0.46229282
87	0xbe9be7ae	-0.30450195
88	0xbe816aa4	-0.25276673
89	0xbf21090e	-0.6290444
90	0x3f149bd0	0.5805025
91	0xbd2780fe	-0.0408945
92	0x3e51d42f	0.20491098
93	0x3e34bd3c	0.17650312
94	0x3f02fe59	0.51169354
95	0xbe55c365	-0.20875318
96	0xbd028098	-0.031860918
97	0xbeb9b2e3	-0.36269292
98	0x3f03fc81	0.51557165
99	0xbbddb36d	-0.006765774
100	0xbe843897	-0.25824425
101	0xbf09b001	-0.53784186
102	0xbe8186a2	-0.2529803
103	0x3cdfa183	0.027298694
104	0xbf172276	-0.5903696
105	0xbda82d1c	-0.08211729
106	0x3e4a4bba	0.1975545
107	0x3f12bc43	0.57318515
108	0x3e8f51e9	0.2799218
109	0xbe9bd3d6	-0.30435055
110	0xbe88e530	-0.26737356
111	0x3dcc0fa4	0.09963921
112	0xbf1b2a00	-0.6061096
113	0xbbcee9d4	-0.0063144956
114	0x3f018b52	0.5060321
115	0x3ebcb826	0.36859244
116	0xbea64e09	-0.3248141
117	0x3c1143ce	0.008866264
118	0xbc55a77c	-0.01304042
119	0xbe79de1e	-0.24401137
120	0xbf0da661	-0.55332
121	0xbdcc8b15	-0.09987465
122	0x3f076cb4	0.5290024
123	0x3e5d0817	0.21585117
124	0x3e963e72	0.29344517
125	0xbe3dee7e	-0.18548009
126	0x3f026de4	0.5094893
127	0xbe90d804	-0.28289807
128	0xbdde3513	-0.10849967
129	0x3e7346c6	0.23757467
130	0xbe14331a	-0.14472619
131	0xbda65983	-0.08122542
132	0xbf0e35a0	-0.55550575
133	0xbdf0e770	-0.11762893
134	0xbdd4acce	-0.103845224
135	0x3e8e2bc7	0.27767774
136	0x3df9cc8f	0.121972196
137	0xbde10062	-0.10986401
138	0x3e4aeadd	0.19816156
139	0xbcf6288c	-0.030048631
140	0x3ec4aa90	0.3841138
141	0xbefd36aa	-0.49455768
142	0xbe53bcec	-0.20677537
143	0xbeca8ba8	-0.39559674
144	0x3e0146dc	0.12624687
145	0xbe10c520	-0.14137697
146	0xbe441a0c	-0.19150561
147	0xbc44da00	-0.012014866
148	0x3cdf43c0	0.027253985
149	0x3e9cd120	0.306283
150	0x3e531e24	0.20616966
151	0x3f122adb	0.5709664
152	0xbe5ff539	-0.21870889
153	0x3cedd052	0.029029999
154	0x3ce051ac	0.027382694
155	0x3e9ff33d	0.31240264
156	0xbe4319d7	-0.19052826
157	0xbed6cd98	-0.4195373
158	0x3ec81f4e	0.39086384
159	0x3eb3e427	0.35135004
160	0x3f006e74	0.5016854
161	0xbeac8747	-0.33696958
162	0x3e7199e8	0.23593867
163	0xbedf6463	-0.43631276
164	0xbca99cbf	-0.020704625
165	0xbf159d5a	-0.58443224
166	0xbe20aeb4	-0.15691644
167	0x3eb5c391	0.35500768
168	0xbf0885a5	-0.53328925
169	0xbd8932ef	-0.06699168
170	0x3e8191d9	0.25306585
171	0x3df4042f	0.119148605
172	0x3ee3682f	0.44415423
173	0x3ecd343b	0.4007891
174	0xbe98654b	-0.2976478
175	0xbc8bcb2a	-0.01706465
176	0x3e873638	0.26408553
177	0x3eb3f469	0.35147408
178	0xbe73fe57	-0.23827492
179	0x3f1f48ce	0.62220466
180	0xbebffbcd	-0.37496796
181	0x3d74a9d4	0.059732273
182	0x3dee771f	0.11643814
183	0xbeaa535d	-0.33266726
184	0xbeb02133	-0.3440033
185	0xbebf8e4e	-0.37413257
186	0xbea688a6	-0.3252613
187	0x3ee63fe4	0.4497062
188	0x3e4d9e9f	0.2008004
189	0x3e30aff2	0.17254618
190	0x3c099c55	0.008399089
191	0x3eea9839	0.45819262
192	0x3dd37a93	0.103261136
193	0x3db37eae	0.087643966
194	0xbaccf9dd	-0.001563843
195	0xbecb7246	-0.3973562
196	0x3e27c078	0.16382015
197	0x3e81b4be	0.25333208
198	0x3ee64bdc	0.4497975
199	0xbe884f62	-0.26623064
200	0x3ecdd501	0.40201572
201	0x3d9304cc	0.07178649
202	0x3edc953e	0.43082613
203	0x3d3d0b7a	0.046153523
204	0x3db44afc	0.08803365
205	0x3ee080e6	0.43848342
206	0x3e11d5be	0.14241692
207	0x3d356a20	0.04429066
208	0xbe62e572	-0.22157839
209	0xbeb70302	-0.35744482
210	0xbb3cfd38	-0.0028837454
211	0xbe56d1c8	-0.20978463
212	0xbe1ba04f	-0.15197872
213	0xbe6f29cb	-0.23355787
214	0xbe0fc862	-0.14041284
215	0x3e69835e	0.22804019
216	0x3ec04aba	0.37557012
217	0x3cb18ae0	0.021672666
218	0xbe78043c	-0.24220365
219	0x3d350ff0	0.044204652
220	0x3d3fde3e	0.046842806
221	0x3e24add8	0.16081941
222	0x3ef35180	0.47523117
223	0x3f12fae2	0.57414067
224	0x3e95383a	0.2914446
225	0x3effb6a1	0.49944022
226	0x3c30a278	0.010780923
227	0xbec17c30	-0.3779006
228	0xbf0311e0	-0.5119915
229	0xbf0c105e	-0.54712474
230	0x3d37fdfb	0.04491995
231	0xbe320fe2	-0.17388871
232	0xbe30ad84	-0.17253691
233	0xbed8ff93	-0.42382488
234	0x3c287788	0.010282405
235	0x3ef3a500	0.47586823
236	0xbda8441a	-0.08216114
237	0xbe499653	-0.1968625
238	0x3f012a14	0.5045483
239	0xbe8d4e69	-0.27598885
240	0x3e60883b	0.21926968
241	0xbe1acf62	-0.15118173
242	0x3d88db26	0.06682424
243	0xbe8f40cd	-0.27979127
244	0xbe311d3c	-0.17296308
245	0x3dcc0e61	0.0996368
246	0x3efd0b18	0.49422526
247	0x3edc65f9	0.4304655
248	0x3e833386	0.25625247
249	0xbe4bcb5c	-0.19901794
250	0xbeb2ab23	-0.34896192
251	0x3e2393ba	0.15974322
252	0x3e1ea461	0.15492393
253	0xbecc3981	-0.39887622
254	0x3ec68c7a	0.3877905
255	0x3d8ebb30	0.06969297

bias f4 [64]
0	0x3e8479ed	0.25874272
1	0xbc265290	-0.01015152
2	0x3e9341a0	0.28761005
3	0xbe9f40f4	-0.31104243
4	0x3ecb4440	0.39700508
5	0xbee32a50	-0.4436822
6	0x3f001f98	0.5004821
7	0x3f17410f	0.59083647
8	0xbea4b820	-0.32171726
9	0xbe133e9a	-0.1437935
10	0xbd084e9c	-0.033278093
11	0x3e8dd87f	0.27704236
12	0x3eda55db	0.42643628
13	0x3f0123e4	0.5044539
14	0xbeec48dc	-0.46149337
15	0xbe26bfc0	-0.16284084
16	0x3c7711f0	0.01507996
17	0x3f255117	0.6457686
18	0x3e7452ab	0.2385966
19	0x3c9404a0	0.018068612
20	0xbec98e0c	-0.39366186
21	0x3ee86994	0.4539305
22	0xbe9efc8d	-0.31052056
23	0x3e6a915b	0.22907011
24	0x3ec524ed	0.38504735
25	0xbe663bfe	-0.22483823
26	0xbdc5ad26	-0.09652166
27	0x3c92a86e	0.01790258
28	0x3f0346db	0.5127999
29	0xbec7bbc4	-0.3901044
30	0xbe40214d	-0.18762703
31	0x3f2c3d75	0.67281276
32	0xbe2dacbf	-0.16960429
33	0xbe75a632	-0.2398918
34	0xbe5d9e64	-0.21642452
35	0xbeea70a8	-0.45789075
36	0xbeb5c648	-0.3550284
37	0xbea33558	-0.31876636
38	0x3ece5e75	0.4030644
39	0x3e4fdede	0.20299861
40	0xbdb71ac6	-0.089406535
41	0x3ef3e4d9	0.47635534
42	0x3f068ccd	0.52558595
43	0xbeb58577	-0.35453388
44	0xbda5db1a	-0.08098431
45	0xbe83b734	-0.2572571
46	0xbe5f1ae0	-0.21787596
47	0x3f115462	0.5676938
48	0xbeba32cb	-0.36366877
49	0x3ef2d07e	0.47424692
50	0x3efc1d3c	0.49241054
51	0xbe7fa109	-0.24963774
52	0xbe993c7f	-0.29928967
53	0xbe78c49a	-0.24293748
54	0xbe75182c	-0.23935002
55	0x3da1e0da	0.07904215
56	0xbecb16e8	-0.39665914
57	0x3edfa299	0.4367874
58	0xbe8ee225	-0.2790691
59	0x3f3ed79c	0.74547744
60	0xbe390f01	-0.1807213
61	0x3effdc6c	0.49972856
62	0x3ea6827c	0.32521427
63	0x3eafa33c	0.34304225

weight f4 [64, 64]
0	0xbe22e83a	-0.159089
1	0xbdfc08e8	-0.12306386
2	0xbe0d47f3	-0.13796978
3	0x3dfa7a4c	0.122303575
4	0xbc8ecbd1	-0.017431172
5	0xbd4e2968	-0.050332457
6	0x3cba89f6	0.022770863
7	0x3ba869ee	0.005139581
8	0xbda6d706	-0.08146481
9	0xbb3e5887	-0.0029044466
10	0xbc6ea0eb	-0.014564733
11	0x3b0bcf4d	0.0021333278
12	0xbd772d90	-0.060346186
13	0x3d9c0c10	0.07619488
14	0x39738400	0.0002322346
15	0xbdb4448c	-0.08802137
16	0x3d4a754f	0.04942828
17	0x3d018119	0.031617258
18	0xbd43ff90	-0.047851145
19	0x3b886137	0.0041619795
20	0xbc72ac40	-0.014811575
21	0xbd812ce0	-0.06307387
22	0x3d8f1e31	0.069881804
23	0x3d90c706	0.07069211
24	0x3d9e9b96	0.077445194
25	0x3c9423a9	0.01808341
26	0xbda20711	-0.07911504
27	0xbc8a5e61	-0.016890706
28	0xbe12268b	-0.14272515
29	0x3ce5b8ad	0.028042162
30	0x3d1ca7a2	0.038245805
31	0xbd040bde	-0.03223788
32	0x3d7233b9	0.059131358
33	0x3c532933	0.012888241
34	0xbd1ee647	-0.03879383
35	0x3db896ae	0.09013115
36	0x3cfba460	0.030718029
37	0xbdce7a0a	-0.10081871
38	0xbcb51a89	-0.02210738
39	0x3d9bc542	0.07605983
40	0xbda90907	-0.08253675
41	0x3d81a3cf	0.06330072
42	0x3d0ae410	0.033908904
43	0xbdeb4f90	-0.11489785
44	0xbe19ca38	-0.15018547
45	0xbd14efcd	-0.036361504
46	0xbd0701fb	-0.032960873
47	0x3c920316	0.017823737
48	0x3dd68c64	0.10475996
49	0x3d242138	0.040070742
50	0xbdc79a98	-0.09746283
51	0x3dc7ba5f	0.09752344
52	0x3d8c25fc	0.068431824
53	0xbd966e64	-0.07345274
54	0xbda02496	-0.07819478
55	0x3d50bd3b	0.050961714
56	0xbdc447b4	-0.09583989
57	0x3d8edd3f	0.06975793
58	0xbc5dcbcb	-0.013537358
59	0xbb553805	-0.003253461
60	0x3d032190	0.03201443
61	0x3d1ac596	0.03778609
62	0x3da96c46	0.08272605
63	0x3d1573f1	0.036487523
64	0x3dcc09fb	0.09962841
65	0x3dbb1477	0.09134763
66	0x3e20631d	0.15662809
67	0x3cf3d8e0	0.0297665
68	0x3e5b644c	0.21424979
69	0x3d9c069a	0.07618447
70	0x3e170615	0.14748414
71	0x3e02feda	0.1279253
72	0x3d1a8869	0.037727747
73	0x3e88c90f	0.26715896
74	0xbd55239b	-0.05203591
75	0x3e43cf46	0.19122037
76	0x3e0a2e76	0.13494286
77	0x3dca0a02	0.0986519
78	0xbd5646fc	-0.05231379
79	0x3de4a039	0.111633725
80	0x3d8216f5	0.06352035
81	0x3e770074	0.24121267
82	0x3e85abfd	0.2610778
83	0x3d96a0f3	0.073549174
84	0x3dec77b0	0.11546266
85	0x3e2bda72	0.16782549
86	0x3e8bab0a	0.2727893
87	0xbd9b42fb	-0.07581135
88	0x3e2dda41	0.16977789
89	0x3df20b07	0.118185095
90	0x3e7bf41a	0.24604836
91	0x3e406479	0.18788327
92	0x3dabd898	0.08390921
93	0xbd7bb75b	-0.06145416
94	0x3e8d91ab	0.27650198
95	0xbc553470	-0.01301299
96	0xbd81cbe4	-0.06337717
97	0x3dff8909	0.12477309
98	0xbd8f9e99	-0.07012672
99	0x3da647b4	0.08119145
100	0xbac94780	-0.0015356392
101	0x3e076c7d	0.13224979
102	0x3e4e066c	0.20119637
103	0x3e35ebbc	0.17765707
104	0x3db5de42	0.08880283
105	0x3e6e2939	0.23257913
106	0x3da5fc8f	0.08104812
107	0x3db96321	0.090521105
108	0x3d389798	0.045066446
109	0x3de27ce0	0.11058974
110	0x3e70b924	0.23508126
111	0x3e09a777	0.13442789
112	0x3cc13b07	0.023587717
113	0x3e0848f9	0.13309087
114	0x3e152317	0.14564167
115	0x3cfff77c	0.03124594
116	0x3d926588	0.07148272
117	0x3e24141e	0.16023299
118	0x3dc79c8c	0.09746656
119	0x3c8d8b11	0.017278226
120	0xbd4abde5	-0.049497504
121	0x3e518391	0.20460345
122	0x3dd453b4	0.103675276
123	0x3d0c2cf5	0.034222562
124	0xbd5b0789	-0.053473983
125	0x3e377b1b	0.17918055
126	0x3d0aae69	0.033857737
127	0x3e9193e7	0.28433153
128	0x3d3283f0	0.043582857
129	0x39be2e00	0.00036273897
130	0xbd706638	-0.058691233
131	0x3d55f248	0.05223301
132	0xbc1e7de0	-0.009673566
133	0x3d43a868	0.047768027
134	0x3d615570	0.05501312
135	0xbd92cc3e	-0.07167862
136	0xbdc0dab2	-0.09416713
137	0xbcab5d20	-0.020918429
138	0x3cf0dfb8	0.029403552
139	0x3d48a5f8	0.048986405
140	0xbdf2ed32	-0.11861648
141	0xbd865214	-0.06558624
142	0xbdf7739a	-0.12082596
143	0xbdda33ac	-0.10654387
144	0x3d946790	0.072463155
145	0x3daedb1c	0.085378855
146	0xbd969224	-0.07352093
147	0xbd4e5c08	-0.050380737
148	0xbd2d23a8	-0.042270333
149	0x3c9949c8	0.01871194
150	0x3dc2ebf6	0.09517662
151	0xbdf22018	-0.11822528
152	0xbd57a2bc	-0.05264543
153	0xbccba338	-0.024858102
154	0xbc9a6880	-0.018848658
155	0xbcfc73c8	-0.030816928
156	0xbd724a3c	-0.059152827
157	0x3d738ea8	0.05946222
158	0x3cf39bd0	0.029737383
159	0xbd33ea24	-0.043924466
160	0xbd218b3c	-0.039439425
161	0xbd7fc0a4	-0.062439576
162	0x3de73f8c	0.112914175
163	0x3de08bb2	0.10964145
164	0x3d2e313c	0.042527422
165	0xbc0a8a00	-0.008455753
166	0xbdd1819a	-0.10229798
167	0x3cbc9320	0.023019373
168	0x3b701bc0	0.0036637634
169	0x3dff7fd6	0.12475555
170	0xbdae9d9e	-0.08526157
171	0xbd65ed8c	-0.056134745
172	0xbd98d2bc	-0.074620694
173	0xbd9fda60	-0.078053236
174	0xbdbb2504	-0.091379195
175	0xbd8d3ec0	-0.06896734
176	0x3d32e670	0.043676794
177	0xbce304f8	-0.02771233
178	0x3d2f57f8	0.042808503
179	0xbd4b6bc4	-0.04966332
180	0x3d69b788	0.057059795
181	0x3dab95ba	0.083781675
182	0xbdaae774	-0.083449274
183	0xbd97e5d0	-0.0741688
184	0x3dca54b6	0.098794386
185	0xbd28b614	-0.04118927
186	0xbda6c2d0	-0.08142626
187	0xbd69f4d8	-0.057118267
188	0xbd461e48	-0.048368722
189	0xbdb118f0	-0.086473346
190	0x3d25faa4	0.040522233
191	0x3dad514a	0.0846277
192	0xbe06bcfe	-0.13158032
193	0xbcfe90b5	-0.031074861
194	0x3dd67eeb	0.104734264
195	0x3d8a8b86	0.06764893
196	0xbd38234c	-0.044955537
197	0xbd9ea3aa	-0.0774606
198	0x3d9a8164	0.075442106
199	0x3c1fd157	0.0097545
200	0xbdfb1424	-0.12259701
201	0xbcc02e22	-0.023459498
202	0x3d9c6962	0.07637288
203	0x3db1e699	0.08686561
204	0x3dcb16a4	0.09916428
205	0xbda3caa9	-0.07997639
206	0x3dd8fef0	0.105955005
207	0xbdf8a29b	-0.121403895
208	0xbc292285	-0.0103231715
209	0xbdea7dfb	-0.1144981
210	0xbd4a78f0	-0.04943174
211	0x3d8ceda8	0.06881267
212	0xbac36d80	-0.0014909953
213	0x3d863414	0.06552902
214	0xbdeb61f1	-0.1149329
215	0xbcd81c09	-0.026380556
216	0x3cf59636	0.029978853
217	0xbdc2a24c	-0.09503612
218	0x3cefb96d	0.029263223
219	0x3d13981a	0.036033727
220	0xbcf87379	-0.0303285
221	0x3da4a857	0.08039921
222	0xbc7d1f1c	-0.015449312
223	0x3dcbd61a	0.09952946
224	0xbd4e80e1	-0.050415877
225	0x3dbcd982	0.09221174
226	0x3d9df4a1	0.07712675
227	0xbd72e85c	-0.059303626
228	0x3dc48964	0.09596518
229	0xbde4cba5	-0.111716546
230	0xbdace664	-0.08442381
231	0xbc069ecf	-0.008216574
232	0x3cb25697	0.021769805
233	0x3dbf86d9	0.09351892
234	0x3da24e0c	0.079250425
235	0xbd4c10ae	-0.049820594
236	0xbd23f83e	-0.040031664
237	0x3def5f74	0.11688128
238	0xbe00f8ce	-0.12594911
239	0x3d800806	0.0625153
240	0xbdc91dc0	-0.098201275
241	0xbd92dc8c	-0.07170972
242	0x3c8af478	0.016962275
243	0xbdb675fd	-0.08909223
244	0x3c1e6d3b	0.009669597
245	0xbcbfaa58	-0.023396656
246	0x3d8a2608	0.06745535
247	0x3da87694	0.08225742
248	0x3d7b727c	0.061388478
249	0xbce2fa06	-0.027707111
250	0x3d8e3d62	0.069453016
251	0xbd874864	-0.06605604
252	0x3dd108f2	0.10206784
253	0xbe1d1e9c	-0.15343708
254	0xbcadc58d	-0.021212364
255	0x3d1a021b	0.037599664

bias f4 [64]
0	0x3ba41c75	0.005008275
1	0x3e4e80b3	0.20166282
2	0xbd4330f0	-0.047654092
3	0xbd1406b7	-0.036139216
4	0xbd452b2f	-0.048136886
5	0xbdcd207c	-0.100159615
6	0xbdaaf116	-0.08346765
7	0x3e121081	0.14264108
8	0x3d8a2dbd	0.06747005
9	0x3e3713a4	0.17878586
10	0x3e697f38	0.22802436
11	0x3e4706e8	0.19436228
12	0x3d95936d	0.0730351
13	0x3e64a0db	0.22326986
14	0x3c1dc8ef	0.009630426
15	0x3dfaf531	0.12253798
16	0x3d30541d	0.043048967
17	0x3d33f96a	0.04393903
18	0xbc5cfee6	-0.013488507
19	0xbe073a57	-0.13205849
20	0x3cdbfb86	0.026853334
21	0x3daa9e28	0.08330947
22	0x3e3cfc1a	0.18455544
23	0x3d5aa418	0.05337915
24	0x3d92e2cd	0.07172165
25	0x3d7c9cc3	0.061672937
26	0x3cce05f8	0.02514933
27	0xbd909e23	-0.07061412
28	0xbc04dbed	-0.008109075
29	0x3dad0ee7	0.08450108
30	0x3e14d8a9	0.14535774
31	0xbd9c2ad5	-0.07625357
32	0xbda93f90	-0.08264077
33	0x3cb00dbb	0.021490922
34	0xbdeef89d	-0.11668513
35	0x3e03b6b8	0.1286267
36	0xbd87fca1	-0.06639982
37	0x3d84588b	0.06462201
38	0xbcc9ec48	-0.0246488
39	0xbd842511	-0.06452382
40	0x3e267249	0.16254534
41	0xbd145ce4	-0.0362214
42	0x3e809b4b	0.2511848
43	0xbc099060	-0.008396238
44	0x3db9da93	0.09074893
45	0x3db44b38	0.08803409
46	0x3d92600a	0.07147224
47	0x3d41f129	0.04734913
48	0xbdc81cdd	-0.0977113
49	0x3de15d15	0.11004082
50	0xbdb56ee2	-0.0885904
51	0xbd84585f	-0.06462168
52	0xbd35074c	-0.044196412
53	0x3e41355e	0.18868014
54	0x3e2c59a9	0.16831078
55	0x3cfb0460	0.030641735
56	0x3de9ae33	0.11410179
57	0x3c61357b	0.013745661
58	0x3d97ef7c	0.07418725
59	0x3d3a001b	0.045410257
60	0x3e340ea1	0.17583705
61	0x3e04e1c9	0.12976755
62	0x3e3f17c6	0.18661413
63	0xbd091584	-0.033467785

weight f4 [2, 64]
0	0xbd8ed59b	-0.06974336
1	0xbcb51309	-0.022103803
2	0xbd242808	-0.04007724
3	0xbc7e8216	-0.015533945
4	0xbbb80fe0	-0.005617127
5	0x3defca38	0.11708492
6	0x3de4c5fc	0.11170575
7	0xbcccf41e	-0.025018748
8	0xbdb153ea	-0.086585835
9	0x3c95355b	0.018213918
10	0x3b6d44ee	0.0036204415
11	0xbe801e3c	-0.25023067
12	0x3d8a0fd9	0.06741304
13	0xbd93b4af	-0.07212197
14	0xbe62b2b8	-0.22138488
15	0xbe45a7b3	-0.19302253
16	0x3dbf4bee	0.09340654
17	0xbce2f07d	-0.027702564
18	0xbd87b816	-0.066269085
19	0x3dd4c504	0.1038914
20	0xbdbc2abc	-0.091878384
21	0xbe533b72	-0.20628145
22	0xbd763bdb	-0.060115676
23	0xbcf0a970	-0.02937767
24	0x3d01d7f7	0.0317001
25	0xbe3fb856	-0.18722662
26	0xbe46f7bd	-0.19430442
27	0x3d9f3dfd	0.07775495
28	0xbd417283	-0.047228348
29	0xbe0a742f	-0.13520883
30	0xbdc1a377	-0.094550066
31	0x3d632932	0.05545921
32	0xbd6d7500	-0.057972908
33	0x3debbb10	0.11510289
34	0xbdd8d455	-0.10587374
35	0xbe0c3032	-0.1369026
36	0xbbab11ce	-0.0052206283
37	0x3dbd2735	0.09235994
38	0xbd3b9e74	-0.04580541
39	0x3d9e91af	0.07742631
40	0xbdf4b1fc	-0.1194801
41	0xbcef1298	-0.02918367
42	0xbea2983b	-0.31756768
43	0xbd9c868e	-0.07642852
44	0xbe0885fc	-0.13332361
45	0x3df87bf7	0.121330194
46	0x3d1d3b27	0.03838649
47	0x3d5d28df	0.053994056
48	0xbc1243c3	-0.008927288
49	0xbd8949c3	-0.06703522
50	0xbd95c295	-0.07312504
51	0x3df3c1f4	0.11902228
52	0x3def7037	0.11691325
53	0x3cf9f319	0.030511426
54	0xbe6d95b5	-0.2320164
55	0x3d8796f7	0.06620591
56	0x3dd1680b	0.10224923
57	0xbe48722f	-0.19574808
58	0x3c9b884d	0.018985892
59	0x3ded3cb9	0.115838476
60	0xbd396363	-0.0452608
61	0xbd8231fd	-0.06357191
62	0xbd64dcf5	-0.055874784
63	0xbd92b3d4	-0.07163206
64	0x3d397192	0.045274325
65	0xbe21cb28	-0.15800154
66	0xbd3a0224	-0.045412198
67	0x3dbf4b93	0.093405865
68	0x3d9389c9	0.07204015
69	0xbda19a4a	-0.078907564
70	0xbdea747e	-0.11448
71	0xbe5990e0	-0.21246672
72	0xbe6a6d9a	-0.22893372
73	0xbe85ebf4	-0.2615658
74	0xbe816e72	-0.25279576
75	0xbea58b8b	-0.32333025
76	0xba41b30e	-0.0007389047
77	0xbe5d5d69	-0.21617664
78	0xbe1afb2b	-0.15134875
79	0xbdb78e5d	-0.089627005
80	0xbd8b0022	-0.06787135
81	0xbd394660	-0.04523313
82	0x3e04430e	0.12916204
83	0x3d5f9453	0.054584812
84	0xbd90447a	-0.07044311
85	0xbe7bb6d7	-0.24581467
86	0xbe2e0cee	-0.1699712
87	0xbdb4f462	-0.08835675
88	0xbd26a474	-0.04068418
89	0xbe3b66a3	-0.18300872
90	0xbe638c06	-0.22221383
91	0x3d978c69	0.07399828
92	0xbd490c8b	-0.049084228
93	0xbdf13ac6	-0.11778788
94	0xbe5e5659	-0.21712627
95	0x3dbd26da	0.09235926
96	0x3d8ffbb2	0.07030429
97	0x3d185c8c	0.037197635
98	0x3dfe339a	0.12412186
99	0xbe772be8	-0.24137843
100	0x3c4b045c	0.012391176
101	0xbaec69e6	-0.0018036931
102	0xbd21f778	-0.039542645
103	0x3cbc1b7c	0.022962324
104	0xbe04ed48	-0.1298114
105	0x3dc575be	0.09641598
106	0xbe937712	-0.2880178
107	0xbc78f110	-0.0151941925
108	0xbe7e8edd	-0.24859186
109	0x3ccccf4e	0.025001194
110	0x3d478d03	0.048718464
111	0xbcadc899	-0.021213816
112	0x3c9bb768	0.019008353
113	0xbe40ed5e	-0.18840548
114	0xbd8e3df8	-0.06945413
115	0x3d2e49ee	0.042550974
116	0x3df30ffe	0.11868285
117	0xbe671b07	-0.22568904
118	0xbe25f0b6	-0.16205105
119	0xbc140615	-0.009034653
120	0xbd8ab4b8	-0.067727506
121	0xbe41e708	-0.18935788
122	0x39a360ff	0.0003116205
123	0x3d8d82cd	0.06909714
124	0xbe2fb5c7	-0.17159186
125	0xbe525902	-0.20541766
126	0xbe5265cb	-0.20546643
127	0x3dde1283	0.108433746

bias f4 [2]
0	0xbcaa2a40	-0.0207721
1	0xbe6221bb	-0.2208318
